node {
  name: "global_step"
  op: "Variable"
  device: "/device:CPU:0"
  attr {
    key: "_output_shapes"
    value {
      list {
        shape {
        }
      }
    }
  }
  attr {
    key: "container"
    value {
      s: ""
    }
  }
  attr {
    key: "dtype"
    value {
      type: DT_INT64
    }
  }
  attr {
    key: "shape"
    value {
      shape {
      }
    }
  }
  attr {
    key: "shared_name"
    value {
      s: ""
    }
  }
}
node {
  name: "global_step/Initializer/zeros"
  op: "Const"
  device: "/device:CPU:0"
  attr {
    key: "_class"
    value {
      list {
        s: "loc:@global_step"
      }
    }
  }
  attr {
    key: "_output_shapes"
    value {
      list {
        shape {
        }
      }
    }
  }
  attr {
    key: "dtype"
    value {
      type: DT_INT64
    }
  }
  attr {
    key: "value"
    value {
      tensor {
        dtype: DT_INT64
        tensor_shape {
        }
        int64_val: 0
      }
    }
  }
}
node {
  name: "global_step/Assign"
  op: "Assign"
  input: "global_step"
  input: "global_step/Initializer/zeros"
  device: "/device:CPU:0"
  attr {
    key: "T"
    value {
      type: DT_INT64
    }
  }
  attr {
    key: "_class"
    value {
      list {
        s: "loc:@global_step"
      }
    }
  }
  attr {
    key: "_output_shapes"
    value {
      list {
        shape {
        }
      }
    }
  }
  attr {
    key: "use_locking"
    value {
      b: true
    }
  }
  attr {
    key: "validate_shape"
    value {
      b: true
    }
  }
}
node {
  name: "global_step/read"
  op: "Identity"
  input: "global_step"
  device: "/device:CPU:0"
  attr {
    key: "T"
    value {
      type: DT_INT64
    }
  }
  attr {
    key: "_class"
    value {
      list {
        s: "loc:@global_step"
      }
    }
  }
  attr {
    key: "_output_shapes"
    value {
      list {
        shape {
        }
      }
    }
  }
}
node {
  name: "zeros"
  op: "Const"
  attr {
    key: "_output_shapes"
    value {
      list {
        shape {
        }
      }
    }
  }
  attr {
    key: "dtype"
    value {
      type: DT_INT64
    }
  }
  attr {
    key: "value"
    value {
      tensor {
        dtype: DT_INT64
        tensor_shape {
        }
        int64_val: 0
      }
    }
  }
}
node {
  name: "parallel_read/input_producer/Const"
  op: "Const"
  device: "/device:CPU:0"
  attr {
    key: "_output_shapes"
    value {
      list {
        shape {
          dim {
            size: 5
          }
        }
      }
    }
  }
  attr {
    key: "dtype"
    value {
      type: DT_STRING
    }
  }
  attr {
    key: "value"
    value {
      tensor {
        dtype: DT_STRING
        tensor_shape {
          dim {
            size: 5
          }
        }
        string_val: "/home/hoa/workplace/dataset/flowers_train_00003-of-00005.tfrecord"
        string_val: "/home/hoa/workplace/dataset/flowers_train_00004-of-00005.tfrecord"
        string_val: "/home/hoa/workplace/dataset/flowers_train_00001-of-00005.tfrecord"
        string_val: "/home/hoa/workplace/dataset/flowers_train_00002-of-00005.tfrecord"
        string_val: "/home/hoa/workplace/dataset/flowers_train_00000-of-00005.tfrecord"
      }
    }
  }
}
node {
  name: "parallel_read/input_producer/Size"
  op: "Const"
  device: "/device:CPU:0"
  attr {
    key: "_output_shapes"
    value {
      list {
        shape {
        }
      }
    }
  }
  attr {
    key: "dtype"
    value {
      type: DT_INT32
    }
  }
  attr {
    key: "value"
    value {
      tensor {
        dtype: DT_INT32
        tensor_shape {
        }
        int_val: 5
      }
    }
  }
}
node {
  name: "parallel_read/input_producer/Greater/y"
  op: "Const"
  device: "/device:CPU:0"
  attr {
    key: "_output_shapes"
    value {
      list {
        shape {
        }
      }
    }
  }
  attr {
    key: "dtype"
    value {
      type: DT_INT32
    }
  }
  attr {
    key: "value"
    value {
      tensor {
        dtype: DT_INT32
        tensor_shape {
        }
        int_val: 0
      }
    }
  }
}
node {
  name: "parallel_read/input_producer/Greater"
  op: "Greater"
  input: "parallel_read/input_producer/Size"
  input: "parallel_read/input_producer/Greater/y"
  device: "/device:CPU:0"
  attr {
    key: "T"
    value {
      type: DT_INT32
    }
  }
  attr {
    key: "_output_shapes"
    value {
      list {
        shape {
        }
      }
    }
  }
}
node {
  name: "parallel_read/input_producer/Assert/AssertGuard/Switch"
  op: "Switch"
  input: "parallel_read/input_producer/Greater"
  input: "parallel_read/input_producer/Greater"
  device: "/device:CPU:0"
  attr {
    key: "T"
    value {
      type: DT_BOOL
    }
  }
  attr {
    key: "_output_shapes"
    value {
      list {
        shape {
        }
        shape {
        }
      }
    }
  }
}
node {
  name: "parallel_read/input_producer/Assert/AssertGuard/switch_t"
  op: "Identity"
  input: "parallel_read/input_producer/Assert/AssertGuard/Switch:1"
  device: "/device:CPU:0"
  attr {
    key: "T"
    value {
      type: DT_BOOL
    }
  }
  attr {
    key: "_output_shapes"
    value {
      list {
        shape {
        }
      }
    }
  }
}
node {
  name: "parallel_read/input_producer/Assert/AssertGuard/switch_f"
  op: "Identity"
  input: "parallel_read/input_producer/Assert/AssertGuard/Switch"
  device: "/device:CPU:0"
  attr {
    key: "T"
    value {
      type: DT_BOOL
    }
  }
  attr {
    key: "_output_shapes"
    value {
      list {
        shape {
        }
      }
    }
  }
}
node {
  name: "parallel_read/input_producer/Assert/AssertGuard/pred_id"
  op: "Identity"
  input: "parallel_read/input_producer/Greater"
  device: "/device:CPU:0"
  attr {
    key: "T"
    value {
      type: DT_BOOL
    }
  }
  attr {
    key: "_output_shapes"
    value {
      list {
        shape {
        }
      }
    }
  }
}
node {
  name: "parallel_read/input_producer/Assert/AssertGuard/NoOp"
  op: "NoOp"
  input: "^parallel_read/input_producer/Assert/AssertGuard/switch_t"
  device: "/device:CPU:0"
}
node {
  name: "parallel_read/input_producer/Assert/AssertGuard/control_dependency"
  op: "Identity"
  input: "parallel_read/input_producer/Assert/AssertGuard/switch_t"
  input: "^parallel_read/input_producer/Assert/AssertGuard/NoOp"
  device: "/device:CPU:0"
  attr {
    key: "T"
    value {
      type: DT_BOOL
    }
  }
  attr {
    key: "_class"
    value {
      list {
        s: "loc:@parallel_read/input_producer/Assert/AssertGuard/switch_t"
      }
    }
  }
  attr {
    key: "_output_shapes"
    value {
      list {
        shape {
        }
      }
    }
  }
}
node {
  name: "parallel_read/input_producer/Assert/AssertGuard/Assert/data_0"
  op: "Const"
  input: "^parallel_read/input_producer/Assert/AssertGuard/switch_f"
  device: "/device:CPU:0"
  attr {
    key: "_output_shapes"
    value {
      list {
        shape {
        }
      }
    }
  }
  attr {
    key: "dtype"
    value {
      type: DT_STRING
    }
  }
  attr {
    key: "value"
    value {
      tensor {
        dtype: DT_STRING
        tensor_shape {
        }
        string_val: "string_input_producer requires a non-null input tensor"
      }
    }
  }
}
node {
  name: "parallel_read/input_producer/Assert/AssertGuard/Assert/Switch"
  op: "Switch"
  input: "parallel_read/input_producer/Greater"
  input: "parallel_read/input_producer/Assert/AssertGuard/pred_id"
  device: "/device:CPU:0"
  attr {
    key: "T"
    value {
      type: DT_BOOL
    }
  }
  attr {
    key: "_class"
    value {
      list {
        s: "loc:@parallel_read/input_producer/Greater"
      }
    }
  }
  attr {
    key: "_output_shapes"
    value {
      list {
        shape {
        }
        shape {
        }
      }
    }
  }
}
node {
  name: "parallel_read/input_producer/Assert/AssertGuard/Assert"
  op: "Assert"
  input: "parallel_read/input_producer/Assert/AssertGuard/Assert/Switch"
  input: "parallel_read/input_producer/Assert/AssertGuard/Assert/data_0"
  device: "/device:CPU:0"
  attr {
    key: "T"
    value {
      list {
        type: DT_STRING
      }
    }
  }
  attr {
    key: "summarize"
    value {
      i: 3
    }
  }
}
node {
  name: "parallel_read/input_producer/Assert/AssertGuard/control_dependency_1"
  op: "Identity"
  input: "parallel_read/input_producer/Assert/AssertGuard/switch_f"
  input: "^parallel_read/input_producer/Assert/AssertGuard/Assert"
  device: "/device:CPU:0"
  attr {
    key: "T"
    value {
      type: DT_BOOL
    }
  }
  attr {
    key: "_class"
    value {
      list {
        s: "loc:@parallel_read/input_producer/Assert/AssertGuard/switch_f"
      }
    }
  }
  attr {
    key: "_output_shapes"
    value {
      list {
        shape {
        }
      }
    }
  }
}
node {
  name: "parallel_read/input_producer/Assert/AssertGuard/Merge"
  op: "Merge"
  input: "parallel_read/input_producer/Assert/AssertGuard/control_dependency_1"
  input: "parallel_read/input_producer/Assert/AssertGuard/control_dependency"
  device: "/device:CPU:0"
  attr {
    key: "N"
    value {
      i: 2
    }
  }
  attr {
    key: "T"
    value {
      type: DT_BOOL
    }
  }
  attr {
    key: "_output_shapes"
    value {
      list {
        shape {
        }
        shape {
        }
      }
    }
  }
}
node {
  name: "parallel_read/input_producer/Identity"
  op: "Identity"
  input: "parallel_read/input_producer/Const"
  input: "^parallel_read/input_producer/Assert/AssertGuard/Merge"
  device: "/device:CPU:0"
  attr {
    key: "T"
    value {
      type: DT_STRING
    }
  }
  attr {
    key: "_output_shapes"
    value {
      list {
        shape {
          dim {
            size: 5
          }
        }
      }
    }
  }
}
node {
  name: "parallel_read/input_producer/RandomShuffle"
  op: "RandomShuffle"
  input: "parallel_read/input_producer/Identity"
  device: "/device:CPU:0"
  attr {
    key: "T"
    value {
      type: DT_STRING
    }
  }
  attr {
    key: "_output_shapes"
    value {
      list {
        shape {
          dim {
            size: 5
          }
        }
      }
    }
  }
  attr {
    key: "seed"
    value {
      i: 0
    }
  }
  attr {
    key: "seed2"
    value {
      i: 0
    }
  }
}
node {
  name: "parallel_read/input_producer"
  op: "FIFOQueue"
  device: "/device:CPU:0"
  attr {
    key: "_output_shapes"
    value {
      list {
        shape {
          dim {
            size: 2
          }
        }
      }
    }
  }
  attr {
    key: "capacity"
    value {
      i: 32
    }
  }
  attr {
    key: "component_types"
    value {
      list {
        type: DT_STRING
      }
    }
  }
  attr {
    key: "container"
    value {
      s: ""
    }
  }
  attr {
    key: "shapes"
    value {
      list {
        shape {
        }
      }
    }
  }
  attr {
    key: "shared_name"
    value {
      s: ""
    }
  }
}
node {
  name: "parallel_read/input_producer/input_producer_EnqueueMany"
  op: "QueueEnqueueMany"
  input: "parallel_read/input_producer"
  input: "parallel_read/input_producer/RandomShuffle"
  device: "/device:CPU:0"
  attr {
    key: "Tcomponents"
    value {
      list {
        type: DT_STRING
      }
    }
  }
  attr {
    key: "_class"
    value {
      list {
        s: "loc:@parallel_read/input_producer"
      }
    }
  }
  attr {
    key: "timeout_ms"
    value {
      i: -1
    }
  }
}
node {
  name: "parallel_read/input_producer/input_producer_Close"
  op: "QueueClose"
  input: "parallel_read/input_producer"
  device: "/device:CPU:0"
  attr {
    key: "_class"
    value {
      list {
        s: "loc:@parallel_read/input_producer"
      }
    }
  }
  attr {
    key: "cancel_pending_enqueues"
    value {
      b: false
    }
  }
}
node {
  name: "parallel_read/input_producer/input_producer_Close_1"
  op: "QueueClose"
  input: "parallel_read/input_producer"
  device: "/device:CPU:0"
  attr {
    key: "_class"
    value {
      list {
        s: "loc:@parallel_read/input_producer"
      }
    }
  }
  attr {
    key: "cancel_pending_enqueues"
    value {
      b: true
    }
  }
}
node {
  name: "parallel_read/input_producer/input_producer_Size"
  op: "QueueSize"
  input: "parallel_read/input_producer"
  device: "/device:CPU:0"
  attr {
    key: "_class"
    value {
      list {
        s: "loc:@parallel_read/input_producer"
      }
    }
  }
  attr {
    key: "_output_shapes"
    value {
      list {
        shape {
        }
      }
    }
  }
}
node {
  name: "parallel_read/input_producer/Cast"
  op: "Cast"
  input: "parallel_read/input_producer/input_producer_Size"
  device: "/device:CPU:0"
  attr {
    key: "DstT"
    value {
      type: DT_FLOAT
    }
  }
  attr {
    key: "SrcT"
    value {
      type: DT_INT32
    }
  }
  attr {
    key: "_output_shapes"
    value {
      list {
        shape {
        }
      }
    }
  }
}
node {
  name: "parallel_read/input_producer/mul/y"
  op: "Const"
  device: "/device:CPU:0"
  attr {
    key: "_output_shapes"
    value {
      list {
        shape {
        }
      }
    }
  }
  attr {
    key: "dtype"
    value {
      type: DT_FLOAT
    }
  }
  attr {
    key: "value"
    value {
      tensor {
        dtype: DT_FLOAT
        tensor_shape {
        }
        float_val: 0.03125
      }
    }
  }
}
node {
  name: "parallel_read/input_producer/mul"
  op: "Mul"
  input: "parallel_read/input_producer/Cast"
  input: "parallel_read/input_producer/mul/y"
  device: "/device:CPU:0"
  attr {
    key: "T"
    value {
      type: DT_FLOAT
    }
  }
  attr {
    key: "_output_shapes"
    value {
      list {
        shape {
        }
      }
    }
  }
}
node {
  name: "parallel_read/input_producer/ScalarSummary/tags"
  op: "Const"
  device: "/device:CPU:0"
  attr {
    key: "_output_shapes"
    value {
      list {
        shape {
        }
      }
    }
  }
  attr {
    key: "dtype"
    value {
      type: DT_STRING
    }
  }
  attr {
    key: "value"
    value {
      tensor {
        dtype: DT_STRING
        tensor_shape {
        }
        string_val: "queue/parallel_read/input_producer/fraction_of_32_full"
      }
    }
  }
}
node {
  name: "parallel_read/input_producer/ScalarSummary"
  op: "ScalarSummary"
  input: "parallel_read/input_producer/ScalarSummary/tags"
  input: "parallel_read/input_producer/mul"
  device: "/device:CPU:0"
  attr {
    key: "T"
    value {
      type: DT_FLOAT
    }
  }
  attr {
    key: "_output_shapes"
    value {
      list {
        shape {
        }
      }
    }
  }
}
node {
  name: "parallel_read/random_shuffle_queue"
  op: "RandomShuffleQueue"
  device: "/device:CPU:0"
  attr {
    key: "_output_shapes"
    value {
      list {
        shape {
          dim {
            size: 2
          }
        }
      }
    }
  }
  attr {
    key: "capacity"
    value {
      i: 640
    }
  }
  attr {
    key: "component_types"
    value {
      list {
        type: DT_STRING
        type: DT_STRING
      }
    }
  }
  attr {
    key: "container"
    value {
      s: ""
    }
  }
  attr {
    key: "min_after_dequeue"
    value {
      i: 320
    }
  }
  attr {
    key: "seed"
    value {
      i: 0
    }
  }
  attr {
    key: "seed2"
    value {
      i: 0
    }
  }
  attr {
    key: "shapes"
    value {
      list {
      }
    }
  }
  attr {
    key: "shared_name"
    value {
      s: ""
    }
  }
}
node {
  name: "parallel_read/random_shuffle_queue_Size"
  op: "QueueSize"
  input: "parallel_read/random_shuffle_queue"
  device: "/device:CPU:0"
  attr {
    key: "_class"
    value {
      list {
        s: "loc:@parallel_read/random_shuffle_queue"
      }
    }
  }
  attr {
    key: "_output_shapes"
    value {
      list {
        shape {
        }
      }
    }
  }
}
node {
  name: "parallel_read/ToFloat"
  op: "Cast"
  input: "parallel_read/random_shuffle_queue_Size"
  device: "/device:CPU:0"
  attr {
    key: "DstT"
    value {
      type: DT_FLOAT
    }
  }
  attr {
    key: "SrcT"
    value {
      type: DT_INT32
    }
  }
  attr {
    key: "_output_shapes"
    value {
      list {
        shape {
        }
      }
    }
  }
}
node {
  name: "parallel_read/mul/y"
  op: "Const"
  device: "/device:CPU:0"
  attr {
    key: "_output_shapes"
    value {
      list {
        shape {
        }
      }
    }
  }
  attr {
    key: "dtype"
    value {
      type: DT_FLOAT
    }
  }
  attr {
    key: "value"
    value {
      tensor {
        dtype: DT_FLOAT
        tensor_shape {
        }
        float_val: 0.00156250002328
      }
    }
  }
}
node {
  name: "parallel_read/mul"
  op: "Mul"
  input: "parallel_read/ToFloat"
  input: "parallel_read/mul/y"
  device: "/device:CPU:0"
  attr {
    key: "T"
    value {
      type: DT_FLOAT
    }
  }
  attr {
    key: "_output_shapes"
    value {
      list {
        shape {
        }
      }
    }
  }
}
node {
  name: "parallel_read/ScalarSummary/tags"
  op: "Const"
  device: "/device:CPU:0"
  attr {
    key: "_output_shapes"
    value {
      list {
        shape {
        }
      }
    }
  }
  attr {
    key: "dtype"
    value {
      type: DT_STRING
    }
  }
  attr {
    key: "value"
    value {
      tensor {
        dtype: DT_STRING
        tensor_shape {
        }
        string_val: "queue/parallel_read/random_shuffle_queue/fraction_of_640_full"
      }
    }
  }
}
node {
  name: "parallel_read/ScalarSummary"
  op: "ScalarSummary"
  input: "parallel_read/ScalarSummary/tags"
  input: "parallel_read/mul"
  device: "/device:CPU:0"
  attr {
    key: "T"
    value {
      type: DT_FLOAT
    }
  }
  attr {
    key: "_output_shapes"
    value {
      list {
        shape {
        }
      }
    }
  }
}
node {
  name: "parallel_read/TFRecordReader"
  op: "TFRecordReader"
  device: "/device:CPU:0"
  attr {
    key: "_output_shapes"
    value {
      list {
        shape {
          dim {
            size: 2
          }
        }
      }
    }
  }
  attr {
    key: "compression_type"
    value {
      s: ""
    }
  }
  attr {
    key: "container"
    value {
      s: ""
    }
  }
  attr {
    key: "shared_name"
    value {
      s: ""
    }
  }
}
node {
  name: "parallel_read/TFRecordReader_1"
  op: "TFRecordReader"
  device: "/device:CPU:0"
  attr {
    key: "_output_shapes"
    value {
      list {
        shape {
          dim {
            size: 2
          }
        }
      }
    }
  }
  attr {
    key: "compression_type"
    value {
      s: ""
    }
  }
  attr {
    key: "container"
    value {
      s: ""
    }
  }
  attr {
    key: "shared_name"
    value {
      s: ""
    }
  }
}
node {
  name: "parallel_read/TFRecordReader_2"
  op: "TFRecordReader"
  device: "/device:CPU:0"
  attr {
    key: "_output_shapes"
    value {
      list {
        shape {
          dim {
            size: 2
          }
        }
      }
    }
  }
  attr {
    key: "compression_type"
    value {
      s: ""
    }
  }
  attr {
    key: "container"
    value {
      s: ""
    }
  }
  attr {
    key: "shared_name"
    value {
      s: ""
    }
  }
}
node {
  name: "parallel_read/TFRecordReader_3"
  op: "TFRecordReader"
  device: "/device:CPU:0"
  attr {
    key: "_output_shapes"
    value {
      list {
        shape {
          dim {
            size: 2
          }
        }
      }
    }
  }
  attr {
    key: "compression_type"
    value {
      s: ""
    }
  }
  attr {
    key: "container"
    value {
      s: ""
    }
  }
  attr {
    key: "shared_name"
    value {
      s: ""
    }
  }
}
node {
  name: "parallel_read/ReaderRead"
  op: "ReaderRead"
  input: "parallel_read/TFRecordReader"
  input: "parallel_read/input_producer"
  device: "/device:CPU:0"
  attr {
    key: "_class"
    value {
      list {
        s: "loc:@parallel_read/TFRecordReader"
        s: "loc:@parallel_read/input_producer"
      }
    }
  }
  attr {
    key: "_output_shapes"
    value {
      list {
        shape {
        }
        shape {
        }
      }
    }
  }
}
node {
  name: "parallel_read/random_shuffle_queue_enqueue"
  op: "QueueEnqueue"
  input: "parallel_read/random_shuffle_queue"
  input: "parallel_read/ReaderRead"
  input: "parallel_read/ReaderRead:1"
  device: "/device:CPU:0"
  attr {
    key: "Tcomponents"
    value {
      list {
        type: DT_STRING
        type: DT_STRING
      }
    }
  }
  attr {
    key: "_class"
    value {
      list {
        s: "loc:@parallel_read/random_shuffle_queue"
      }
    }
  }
  attr {
    key: "timeout_ms"
    value {
      i: -1
    }
  }
}
node {
  name: "parallel_read/ReaderRead_1"
  op: "ReaderRead"
  input: "parallel_read/TFRecordReader_1"
  input: "parallel_read/input_producer"
  device: "/device:CPU:0"
  attr {
    key: "_class"
    value {
      list {
        s: "loc:@parallel_read/TFRecordReader_1"
        s: "loc:@parallel_read/input_producer"
      }
    }
  }
  attr {
    key: "_output_shapes"
    value {
      list {
        shape {
        }
        shape {
        }
      }
    }
  }
}
node {
  name: "parallel_read/random_shuffle_queue_enqueue_1"
  op: "QueueEnqueue"
  input: "parallel_read/random_shuffle_queue"
  input: "parallel_read/ReaderRead_1"
  input: "parallel_read/ReaderRead_1:1"
  device: "/device:CPU:0"
  attr {
    key: "Tcomponents"
    value {
      list {
        type: DT_STRING
        type: DT_STRING
      }
    }
  }
  attr {
    key: "_class"
    value {
      list {
        s: "loc:@parallel_read/random_shuffle_queue"
      }
    }
  }
  attr {
    key: "timeout_ms"
    value {
      i: -1
    }
  }
}
node {
  name: "parallel_read/ReaderRead_2"
  op: "ReaderRead"
  input: "parallel_read/TFRecordReader_2"
  input: "parallel_read/input_producer"
  device: "/device:CPU:0"
  attr {
    key: "_class"
    value {
      list {
        s: "loc:@parallel_read/TFRecordReader_2"
        s: "loc:@parallel_read/input_producer"
      }
    }
  }
  attr {
    key: "_output_shapes"
    value {
      list {
        shape {
        }
        shape {
        }
      }
    }
  }
}
node {
  name: "parallel_read/random_shuffle_queue_enqueue_2"
  op: "QueueEnqueue"
  input: "parallel_read/random_shuffle_queue"
  input: "parallel_read/ReaderRead_2"
  input: "parallel_read/ReaderRead_2:1"
  device: "/device:CPU:0"
  attr {
    key: "Tcomponents"
    value {
      list {
        type: DT_STRING
        type: DT_STRING
      }
    }
  }
  attr {
    key: "_class"
    value {
      list {
        s: "loc:@parallel_read/random_shuffle_queue"
      }
    }
  }
  attr {
    key: "timeout_ms"
    value {
      i: -1
    }
  }
}
node {
  name: "parallel_read/ReaderRead_3"
  op: "ReaderRead"
  input: "parallel_read/TFRecordReader_3"
  input: "parallel_read/input_producer"
  device: "/device:CPU:0"
  attr {
    key: "_class"
    value {
      list {
        s: "loc:@parallel_read/TFRecordReader_3"
        s: "loc:@parallel_read/input_producer"
      }
    }
  }
  attr {
    key: "_output_shapes"
    value {
      list {
        shape {
        }
        shape {
        }
      }
    }
  }
}
node {
  name: "parallel_read/random_shuffle_queue_enqueue_3"
  op: "QueueEnqueue"
  input: "parallel_read/random_shuffle_queue"
  input: "parallel_read/ReaderRead_3"
  input: "parallel_read/ReaderRead_3:1"
  device: "/device:CPU:0"
  attr {
    key: "Tcomponents"
    value {
      list {
        type: DT_STRING
        type: DT_STRING
      }
    }
  }
  attr {
    key: "_class"
    value {
      list {
        s: "loc:@parallel_read/random_shuffle_queue"
      }
    }
  }
  attr {
    key: "timeout_ms"
    value {
      i: -1
    }
  }
}
node {
  name: "parallel_read/random_shuffle_queue_Close"
  op: "QueueClose"
  input: "parallel_read/random_shuffle_queue"
  device: "/device:CPU:0"
  attr {
    key: "_class"
    value {
      list {
        s: "loc:@parallel_read/random_shuffle_queue"
      }
    }
  }
  attr {
    key: "cancel_pending_enqueues"
    value {
      b: false
    }
  }
}
node {
  name: "parallel_read/random_shuffle_queue_Close_1"
  op: "QueueClose"
  input: "parallel_read/random_shuffle_queue"
  device: "/device:CPU:0"
  attr {
    key: "_class"
    value {
      list {
        s: "loc:@parallel_read/random_shuffle_queue"
      }
    }
  }
  attr {
    key: "cancel_pending_enqueues"
    value {
      b: true
    }
  }
}
node {
  name: "parallel_read/random_shuffle_queue_Dequeue"
  op: "QueueDequeue"
  input: "parallel_read/random_shuffle_queue"
  device: "/device:CPU:0"
  attr {
    key: "_class"
    value {
      list {
        s: "loc:@parallel_read/random_shuffle_queue"
      }
    }
  }
  attr {
    key: "_output_shapes"
    value {
      list {
        shape {
          unknown_rank: true
        }
        shape {
          unknown_rank: true
        }
      }
    }
  }
  attr {
    key: "component_types"
    value {
      list {
        type: DT_STRING
        type: DT_STRING
      }
    }
  }
  attr {
    key: "timeout_ms"
    value {
      i: -1
    }
  }
}
node {
  name: "ParseSingleExample/Rank"
  op: "Rank"
  input: "parallel_read/random_shuffle_queue_Dequeue:1"
  device: "/device:CPU:0"
  attr {
    key: "T"
    value {
      type: DT_STRING
    }
  }
  attr {
    key: "_output_shapes"
    value {
      list {
        shape {
        }
      }
    }
  }
}
node {
  name: "ParseSingleExample/Equal/y"
  op: "Const"
  device: "/device:CPU:0"
  attr {
    key: "_output_shapes"
    value {
      list {
        shape {
        }
      }
    }
  }
  attr {
    key: "dtype"
    value {
      type: DT_INT32
    }
  }
  attr {
    key: "value"
    value {
      tensor {
        dtype: DT_INT32
        tensor_shape {
        }
        int_val: 0
      }
    }
  }
}
node {
  name: "ParseSingleExample/Equal"
  op: "Equal"
  input: "ParseSingleExample/Rank"
  input: "ParseSingleExample/Equal/y"
  device: "/device:CPU:0"
  attr {
    key: "T"
    value {
      type: DT_INT32
    }
  }
  attr {
    key: "_output_shapes"
    value {
      list {
        shape {
        }
      }
    }
  }
}
node {
  name: "ParseSingleExample/SerializedIsScalar/AssertGuard/Switch"
  op: "Switch"
  input: "ParseSingleExample/Equal"
  input: "ParseSingleExample/Equal"
  device: "/device:CPU:0"
  attr {
    key: "T"
    value {
      type: DT_BOOL
    }
  }
  attr {
    key: "_output_shapes"
    value {
      list {
        shape {
        }
        shape {
        }
      }
    }
  }
}
node {
  name: "ParseSingleExample/SerializedIsScalar/AssertGuard/switch_t"
  op: "Identity"
  input: "ParseSingleExample/SerializedIsScalar/AssertGuard/Switch:1"
  device: "/device:CPU:0"
  attr {
    key: "T"
    value {
      type: DT_BOOL
    }
  }
  attr {
    key: "_output_shapes"
    value {
      list {
        shape {
        }
      }
    }
  }
}
node {
  name: "ParseSingleExample/SerializedIsScalar/AssertGuard/switch_f"
  op: "Identity"
  input: "ParseSingleExample/SerializedIsScalar/AssertGuard/Switch"
  device: "/device:CPU:0"
  attr {
    key: "T"
    value {
      type: DT_BOOL
    }
  }
  attr {
    key: "_output_shapes"
    value {
      list {
        shape {
        }
      }
    }
  }
}
node {
  name: "ParseSingleExample/SerializedIsScalar/AssertGuard/pred_id"
  op: "Identity"
  input: "ParseSingleExample/Equal"
  device: "/device:CPU:0"
  attr {
    key: "T"
    value {
      type: DT_BOOL
    }
  }
  attr {
    key: "_output_shapes"
    value {
      list {
        shape {
        }
      }
    }
  }
}
node {
  name: "ParseSingleExample/SerializedIsScalar/AssertGuard/NoOp"
  op: "NoOp"
  input: "^ParseSingleExample/SerializedIsScalar/AssertGuard/switch_t"
  device: "/device:CPU:0"
}
node {
  name: "ParseSingleExample/SerializedIsScalar/AssertGuard/control_dependency"
  op: "Identity"
  input: "ParseSingleExample/SerializedIsScalar/AssertGuard/switch_t"
  input: "^ParseSingleExample/SerializedIsScalar/AssertGuard/NoOp"
  device: "/device:CPU:0"
  attr {
    key: "T"
    value {
      type: DT_BOOL
    }
  }
  attr {
    key: "_class"
    value {
      list {
        s: "loc:@ParseSingleExample/SerializedIsScalar/AssertGuard/switch_t"
      }
    }
  }
  attr {
    key: "_output_shapes"
    value {
      list {
        shape {
        }
      }
    }
  }
}
node {
  name: "ParseSingleExample/SerializedIsScalar/AssertGuard/Assert/data_0"
  op: "Const"
  input: "^ParseSingleExample/SerializedIsScalar/AssertGuard/switch_f"
  device: "/device:CPU:0"
  attr {
    key: "_output_shapes"
    value {
      list {
        shape {
        }
      }
    }
  }
  attr {
    key: "dtype"
    value {
      type: DT_STRING
    }
  }
  attr {
    key: "value"
    value {
      tensor {
        dtype: DT_STRING
        tensor_shape {
        }
        string_val: "Input serialized must be a scalar"
      }
    }
  }
}
node {
  name: "ParseSingleExample/SerializedIsScalar/AssertGuard/Assert/Switch"
  op: "Switch"
  input: "ParseSingleExample/Equal"
  input: "ParseSingleExample/SerializedIsScalar/AssertGuard/pred_id"
  device: "/device:CPU:0"
  attr {
    key: "T"
    value {
      type: DT_BOOL
    }
  }
  attr {
    key: "_class"
    value {
      list {
        s: "loc:@ParseSingleExample/Equal"
      }
    }
  }
  attr {
    key: "_output_shapes"
    value {
      list {
        shape {
        }
        shape {
        }
      }
    }
  }
}
node {
  name: "ParseSingleExample/SerializedIsScalar/AssertGuard/Assert"
  op: "Assert"
  input: "ParseSingleExample/SerializedIsScalar/AssertGuard/Assert/Switch"
  input: "ParseSingleExample/SerializedIsScalar/AssertGuard/Assert/data_0"
  device: "/device:CPU:0"
  attr {
    key: "T"
    value {
      list {
        type: DT_STRING
      }
    }
  }
  attr {
    key: "summarize"
    value {
      i: 3
    }
  }
}
node {
  name: "ParseSingleExample/SerializedIsScalar/AssertGuard/control_dependency_1"
  op: "Identity"
  input: "ParseSingleExample/SerializedIsScalar/AssertGuard/switch_f"
  input: "^ParseSingleExample/SerializedIsScalar/AssertGuard/Assert"
  device: "/device:CPU:0"
  attr {
    key: "T"
    value {
      type: DT_BOOL
    }
  }
  attr {
    key: "_class"
    value {
      list {
        s: "loc:@ParseSingleExample/SerializedIsScalar/AssertGuard/switch_f"
      }
    }
  }
  attr {
    key: "_output_shapes"
    value {
      list {
        shape {
        }
      }
    }
  }
}
node {
  name: "ParseSingleExample/SerializedIsScalar/AssertGuard/Merge"
  op: "Merge"
  input: "ParseSingleExample/SerializedIsScalar/AssertGuard/control_dependency_1"
  input: "ParseSingleExample/SerializedIsScalar/AssertGuard/control_dependency"
  device: "/device:CPU:0"
  attr {
    key: "N"
    value {
      i: 2
    }
  }
  attr {
    key: "T"
    value {
      type: DT_BOOL
    }
  }
  attr {
    key: "_output_shapes"
    value {
      list {
        shape {
        }
        shape {
        }
      }
    }
  }
}
node {
  name: "ParseSingleExample/SerializedDependencies"
  op: "Identity"
  input: "parallel_read/random_shuffle_queue_Dequeue:1"
  input: "^ParseSingleExample/SerializedIsScalar/AssertGuard/Merge"
  device: "/device:CPU:0"
  attr {
    key: "T"
    value {
      type: DT_STRING
    }
  }
  attr {
    key: "_class"
    value {
      list {
        s: "loc:@parallel_read/random_shuffle_queue"
      }
    }
  }
  attr {
    key: "_output_shapes"
    value {
      list {
        shape {
          unknown_rank: true
        }
      }
    }
  }
}
node {
  name: "ParseSingleExample/ExpandDims/dim"
  op: "Const"
  device: "/device:CPU:0"
  attr {
    key: "_output_shapes"
    value {
      list {
        shape {
        }
      }
    }
  }
  attr {
    key: "dtype"
    value {
      type: DT_INT32
    }
  }
  attr {
    key: "value"
    value {
      tensor {
        dtype: DT_INT32
        tensor_shape {
        }
        int_val: 0
      }
    }
  }
}
node {
  name: "ParseSingleExample/ExpandDims"
  op: "ExpandDims"
  input: "ParseSingleExample/SerializedDependencies"
  input: "ParseSingleExample/ExpandDims/dim"
  device: "/device:CPU:0"
  attr {
    key: "T"
    value {
      type: DT_STRING
    }
  }
  attr {
    key: "Tdim"
    value {
      type: DT_INT32
    }
  }
  attr {
    key: "_output_shapes"
    value {
      list {
        shape {
          unknown_rank: true
        }
      }
    }
  }
}
node {
  name: "ParseSingleExample/ParseExample/key_image/encoded"
  op: "Const"
  device: "/device:CPU:0"
  attr {
    key: "_output_shapes"
    value {
      list {
        shape {
        }
      }
    }
  }
  attr {
    key: "dtype"
    value {
      type: DT_STRING
    }
  }
  attr {
    key: "value"
    value {
      tensor {
        dtype: DT_STRING
        tensor_shape {
        }
        string_val: ""
      }
    }
  }
}
node {
  name: "ParseSingleExample/ParseExample/Reshape/shape"
  op: "Const"
  device: "/device:CPU:0"
  attr {
    key: "_output_shapes"
    value {
      list {
        shape {
          dim {
          }
        }
      }
    }
  }
  attr {
    key: "dtype"
    value {
      type: DT_INT32
    }
  }
  attr {
    key: "value"
    value {
      tensor {
        dtype: DT_INT32
        tensor_shape {
          dim {
          }
        }
      }
    }
  }
}
node {
  name: "ParseSingleExample/ParseExample/Reshape"
  op: "Reshape"
  input: "ParseSingleExample/ParseExample/key_image/encoded"
  input: "ParseSingleExample/ParseExample/Reshape/shape"
  device: "/device:CPU:0"
  attr {
    key: "T"
    value {
      type: DT_STRING
    }
  }
  attr {
    key: "Tshape"
    value {
      type: DT_INT32
    }
  }
  attr {
    key: "_output_shapes"
    value {
      list {
        shape {
        }
      }
    }
  }
}
node {
  name: "ParseSingleExample/ParseExample/key_image/format"
  op: "Const"
  device: "/device:CPU:0"
  attr {
    key: "_output_shapes"
    value {
      list {
        shape {
        }
      }
    }
  }
  attr {
    key: "dtype"
    value {
      type: DT_STRING
    }
  }
  attr {
    key: "value"
    value {
      tensor {
        dtype: DT_STRING
        tensor_shape {
        }
        string_val: "png"
      }
    }
  }
}
node {
  name: "ParseSingleExample/ParseExample/Reshape_1/shape"
  op: "Const"
  device: "/device:CPU:0"
  attr {
    key: "_output_shapes"
    value {
      list {
        shape {
          dim {
          }
        }
      }
    }
  }
  attr {
    key: "dtype"
    value {
      type: DT_INT32
    }
  }
  attr {
    key: "value"
    value {
      tensor {
        dtype: DT_INT32
        tensor_shape {
          dim {
          }
        }
      }
    }
  }
}
node {
  name: "ParseSingleExample/ParseExample/Reshape_1"
  op: "Reshape"
  input: "ParseSingleExample/ParseExample/key_image/format"
  input: "ParseSingleExample/ParseExample/Reshape_1/shape"
  device: "/device:CPU:0"
  attr {
    key: "T"
    value {
      type: DT_STRING
    }
  }
  attr {
    key: "Tshape"
    value {
      type: DT_INT32
    }
  }
  attr {
    key: "_output_shapes"
    value {
      list {
        shape {
        }
      }
    }
  }
}
node {
  name: "ParseSingleExample/ParseExample/ParseExample/names"
  op: "Const"
  device: "/device:CPU:0"
  attr {
    key: "_output_shapes"
    value {
      list {
        shape {
          dim {
          }
        }
      }
    }
  }
  attr {
    key: "dtype"
    value {
      type: DT_STRING
    }
  }
  attr {
    key: "value"
    value {
      tensor {
        dtype: DT_STRING
        tensor_shape {
          dim {
          }
        }
      }
    }
  }
}
node {
  name: "ParseSingleExample/ParseExample/ParseExample/dense_keys_0"
  op: "Const"
  device: "/device:CPU:0"
  attr {
    key: "_output_shapes"
    value {
      list {
        shape {
        }
      }
    }
  }
  attr {
    key: "dtype"
    value {
      type: DT_STRING
    }
  }
  attr {
    key: "value"
    value {
      tensor {
        dtype: DT_STRING
        tensor_shape {
        }
        string_val: "image/class/label"
      }
    }
  }
}
node {
  name: "ParseSingleExample/ParseExample/ParseExample/dense_keys_1"
  op: "Const"
  device: "/device:CPU:0"
  attr {
    key: "_output_shapes"
    value {
      list {
        shape {
        }
      }
    }
  }
  attr {
    key: "dtype"
    value {
      type: DT_STRING
    }
  }
  attr {
    key: "value"
    value {
      tensor {
        dtype: DT_STRING
        tensor_shape {
        }
        string_val: "image/encoded"
      }
    }
  }
}
node {
  name: "ParseSingleExample/ParseExample/ParseExample/dense_keys_2"
  op: "Const"
  device: "/device:CPU:0"
  attr {
    key: "_output_shapes"
    value {
      list {
        shape {
        }
      }
    }
  }
  attr {
    key: "dtype"
    value {
      type: DT_STRING
    }
  }
  attr {
    key: "value"
    value {
      tensor {
        dtype: DT_STRING
        tensor_shape {
        }
        string_val: "image/format"
      }
    }
  }
}
node {
  name: "ParseSingleExample/ParseExample/ParseExample"
  op: "ParseExample"
  input: "ParseSingleExample/ExpandDims"
  input: "ParseSingleExample/ParseExample/ParseExample/names"
  input: "ParseSingleExample/ParseExample/ParseExample/dense_keys_0"
  input: "ParseSingleExample/ParseExample/ParseExample/dense_keys_1"
  input: "ParseSingleExample/ParseExample/ParseExample/dense_keys_2"
  input: "zeros"
  input: "ParseSingleExample/ParseExample/Reshape"
  input: "ParseSingleExample/ParseExample/Reshape_1"
  device: "/device:CPU:0"
  attr {
    key: "Ndense"
    value {
      i: 3
    }
  }
  attr {
    key: "Nsparse"
    value {
      i: 0
    }
  }
  attr {
    key: "Tdense"
    value {
      list {
        type: DT_INT64
        type: DT_STRING
        type: DT_STRING
      }
    }
  }
  attr {
    key: "_output_shapes"
    value {
      list {
        shape {
          dim {
            size: -1
          }
        }
        shape {
          dim {
            size: -1
          }
        }
        shape {
          dim {
            size: -1
          }
        }
      }
    }
  }
  attr {
    key: "dense_shapes"
    value {
      list {
        shape {
        }
        shape {
        }
        shape {
        }
      }
    }
  }
  attr {
    key: "sparse_types"
    value {
      list {
      }
    }
  }
}
node {
  name: "ParseSingleExample/Squeeze_image/class/label"
  op: "Squeeze"
  input: "ParseSingleExample/ParseExample/ParseExample"
  device: "/device:CPU:0"
  attr {
    key: "T"
    value {
      type: DT_INT64
    }
  }
  attr {
    key: "_output_shapes"
    value {
      list {
        shape {
        }
      }
    }
  }
  attr {
    key: "squeeze_dims"
    value {
      list {
        i: 0
      }
    }
  }
}
node {
  name: "ParseSingleExample/Squeeze_image/encoded"
  op: "Squeeze"
  input: "ParseSingleExample/ParseExample/ParseExample:1"
  device: "/device:CPU:0"
  attr {
    key: "T"
    value {
      type: DT_STRING
    }
  }
  attr {
    key: "_output_shapes"
    value {
      list {
        shape {
        }
      }
    }
  }
  attr {
    key: "squeeze_dims"
    value {
      list {
        i: 0
      }
    }
  }
}
node {
  name: "ParseSingleExample/Squeeze_image/format"
  op: "Squeeze"
  input: "ParseSingleExample/ParseExample/ParseExample:2"
  device: "/device:CPU:0"
  attr {
    key: "T"
    value {
      type: DT_STRING
    }
  }
  attr {
    key: "_output_shapes"
    value {
      list {
        shape {
        }
      }
    }
  }
  attr {
    key: "squeeze_dims"
    value {
      list {
        i: 0
      }
    }
  }
}
node {
  name: "Reshape/shape"
  op: "Const"
  device: "/device:CPU:0"
  attr {
    key: "_output_shapes"
    value {
      list {
        shape {
          dim {
          }
        }
      }
    }
  }
  attr {
    key: "dtype"
    value {
      type: DT_INT32
    }
  }
  attr {
    key: "value"
    value {
      tensor {
        dtype: DT_INT32
        tensor_shape {
          dim {
          }
        }
      }
    }
  }
}
node {
  name: "Reshape"
  op: "Reshape"
  input: "ParseSingleExample/Squeeze_image/class/label"
  input: "Reshape/shape"
  device: "/device:CPU:0"
  attr {
    key: "T"
    value {
      type: DT_INT64
    }
  }
  attr {
    key: "Tshape"
    value {
      type: DT_INT32
    }
  }
  attr {
    key: "_output_shapes"
    value {
      list {
        shape {
        }
      }
    }
  }
}
node {
  name: "Reshape_1/shape"
  op: "Const"
  device: "/device:CPU:0"
  attr {
    key: "_output_shapes"
    value {
      list {
        shape {
          dim {
          }
        }
      }
    }
  }
  attr {
    key: "dtype"
    value {
      type: DT_INT32
    }
  }
  attr {
    key: "value"
    value {
      tensor {
        dtype: DT_INT32
        tensor_shape {
          dim {
          }
        }
      }
    }
  }
}
node {
  name: "Reshape_1"
  op: "Reshape"
  input: "ParseSingleExample/Squeeze_image/format"
  input: "Reshape_1/shape"
  device: "/device:CPU:0"
  attr {
    key: "T"
    value {
      type: DT_STRING
    }
  }
  attr {
    key: "Tshape"
    value {
      type: DT_INT32
    }
  }
  attr {
    key: "_output_shapes"
    value {
      list {
        shape {
        }
      }
    }
  }
}
node {
  name: "Reshape_2/shape"
  op: "Const"
  device: "/device:CPU:0"
  attr {
    key: "_output_shapes"
    value {
      list {
        shape {
          dim {
          }
        }
      }
    }
  }
  attr {
    key: "dtype"
    value {
      type: DT_INT32
    }
  }
  attr {
    key: "value"
    value {
      tensor {
        dtype: DT_INT32
        tensor_shape {
          dim {
          }
        }
      }
    }
  }
}
node {
  name: "Reshape_2"
  op: "Reshape"
  input: "ParseSingleExample/Squeeze_image/encoded"
  input: "Reshape_2/shape"
  device: "/device:CPU:0"
  attr {
    key: "T"
    value {
      type: DT_STRING
    }
  }
  attr {
    key: "Tshape"
    value {
      type: DT_INT32
    }
  }
  attr {
    key: "_output_shapes"
    value {
      list {
        shape {
        }
      }
    }
  }
}
node {
  name: "Equal/y"
  op: "Const"
  device: "/device:CPU:0"
  attr {
    key: "_output_shapes"
    value {
      list {
        shape {
        }
      }
    }
  }
  attr {
    key: "dtype"
    value {
      type: DT_STRING
    }
  }
  attr {
    key: "value"
    value {
      tensor {
        dtype: DT_STRING
        tensor_shape {
        }
        string_val: "png"
      }
    }
  }
}
node {
  name: "Equal"
  op: "Equal"
  input: "Reshape_1"
  input: "Equal/y"
  device: "/device:CPU:0"
  attr {
    key: "T"
    value {
      type: DT_STRING
    }
  }
  attr {
    key: "_output_shapes"
    value {
      list {
        shape {
        }
      }
    }
  }
}
node {
  name: "Equal_1/y"
  op: "Const"
  device: "/device:CPU:0"
  attr {
    key: "_output_shapes"
    value {
      list {
        shape {
        }
      }
    }
  }
  attr {
    key: "dtype"
    value {
      type: DT_STRING
    }
  }
  attr {
    key: "value"
    value {
      tensor {
        dtype: DT_STRING
        tensor_shape {
        }
        string_val: "PNG"
      }
    }
  }
}
node {
  name: "Equal_1"
  op: "Equal"
  input: "Reshape_1"
  input: "Equal_1/y"
  device: "/device:CPU:0"
  attr {
    key: "T"
    value {
      type: DT_STRING
    }
  }
  attr {
    key: "_output_shapes"
    value {
      list {
        shape {
        }
      }
    }
  }
}
node {
  name: "LogicalOr"
  op: "LogicalOr"
  input: "Equal"
  input: "Equal_1"
  device: "/device:CPU:0"
  attr {
    key: "_output_shapes"
    value {
      list {
        shape {
        }
      }
    }
  }
}
node {
  name: "Equal_2/y"
  op: "Const"
  device: "/device:CPU:0"
  attr {
    key: "_output_shapes"
    value {
      list {
        shape {
        }
      }
    }
  }
  attr {
    key: "dtype"
    value {
      type: DT_STRING
    }
  }
  attr {
    key: "value"
    value {
      tensor {
        dtype: DT_STRING
        tensor_shape {
        }
        string_val: "raw"
      }
    }
  }
}
node {
  name: "Equal_2"
  op: "Equal"
  input: "Reshape_1"
  input: "Equal_2/y"
  device: "/device:CPU:0"
  attr {
    key: "T"
    value {
      type: DT_STRING
    }
  }
  attr {
    key: "_output_shapes"
    value {
      list {
        shape {
        }
      }
    }
  }
}
node {
  name: "Equal_3/y"
  op: "Const"
  device: "/device:CPU:0"
  attr {
    key: "_output_shapes"
    value {
      list {
        shape {
        }
      }
    }
  }
  attr {
    key: "dtype"
    value {
      type: DT_STRING
    }
  }
  attr {
    key: "value"
    value {
      tensor {
        dtype: DT_STRING
        tensor_shape {
        }
        string_val: "RAW"
      }
    }
  }
}
node {
  name: "Equal_3"
  op: "Equal"
  input: "Reshape_1"
  input: "Equal_3/y"
  device: "/device:CPU:0"
  attr {
    key: "T"
    value {
      type: DT_STRING
    }
  }
  attr {
    key: "_output_shapes"
    value {
      list {
        shape {
        }
      }
    }
  }
}
node {
  name: "LogicalOr_1"
  op: "LogicalOr"
  input: "Equal_2"
  input: "Equal_3"
  device: "/device:CPU:0"
  attr {
    key: "_output_shapes"
    value {
      list {
        shape {
        }
      }
    }
  }
}
node {
  name: "case/not_0/LogicalNot"
  op: "LogicalNot"
  input: "LogicalOr"
  device: "/device:CPU:0"
  attr {
    key: "_output_shapes"
    value {
      list {
        shape {
        }
      }
    }
  }
}
node {
  name: "case/not_1/LogicalNot"
  op: "LogicalNot"
  input: "LogicalOr_1"
  device: "/device:CPU:0"
  attr {
    key: "_output_shapes"
    value {
      list {
        shape {
        }
      }
    }
  }
}
node {
  name: "case/always_true"
  op: "Const"
  device: "/device:CPU:0"
  attr {
    key: "_output_shapes"
    value {
      list {
        shape {
        }
      }
    }
  }
  attr {
    key: "dtype"
    value {
      type: DT_BOOL
    }
  }
  attr {
    key: "value"
    value {
      tensor {
        dtype: DT_BOOL
        tensor_shape {
        }
        bool_val: true
      }
    }
  }
}
node {
  name: "case/and_not_0/LogicalAnd"
  op: "LogicalAnd"
  input: "case/always_true"
  input: "case/not_0/LogicalNot"
  device: "/device:CPU:0"
  attr {
    key: "_output_shapes"
    value {
      list {
        shape {
        }
      }
    }
  }
}
node {
  name: "case/and_not_1/LogicalAnd"
  op: "LogicalAnd"
  input: "case/and_not_0/LogicalAnd"
  input: "case/not_1/LogicalNot"
  device: "/device:CPU:0"
  attr {
    key: "_output_shapes"
    value {
      list {
        shape {
        }
      }
    }
  }
}
node {
  name: "case/case_0/LogicalAnd"
  op: "LogicalAnd"
  input: "LogicalOr"
  input: "case/always_true"
  device: "/device:CPU:0"
  attr {
    key: "_output_shapes"
    value {
      list {
        shape {
        }
      }
    }
  }
}
node {
  name: "case/case_1/LogicalAnd"
  op: "LogicalAnd"
  input: "LogicalOr_1"
  input: "case/and_not_0/LogicalAnd"
  device: "/device:CPU:0"
  attr {
    key: "_output_shapes"
    value {
      list {
        shape {
        }
      }
    }
  }
}
node {
  name: "case/case_create_empty/DecodeJpeg"
  op: "DecodeJpeg"
  input: "Reshape_2"
  device: "/device:CPU:0"
  attr {
    key: "_output_shapes"
    value {
      list {
        shape {
          dim {
            size: -1
          }
          dim {
            size: -1
          }
          dim {
            size: 3
          }
        }
      }
    }
  }
  attr {
    key: "acceptable_fraction"
    value {
      f: 1.0
    }
  }
  attr {
    key: "channels"
    value {
      i: 3
    }
  }
  attr {
    key: "fancy_upscaling"
    value {
      b: true
    }
  }
  attr {
    key: "ratio"
    value {
      i: 1
    }
  }
  attr {
    key: "try_recover_truncated"
    value {
      b: false
    }
  }
}
node {
  name: "case/preds_c"
  op: "Pack"
  input: "LogicalOr"
  input: "LogicalOr_1"
  device: "/device:CPU:0"
  attr {
    key: "N"
    value {
      i: 2
    }
  }
  attr {
    key: "T"
    value {
      type: DT_BOOL
    }
  }
  attr {
    key: "_output_shapes"
    value {
      list {
        shape {
          dim {
            size: 2
          }
        }
      }
    }
  }
  attr {
    key: "axis"
    value {
      i: 0
    }
  }
}
node {
  name: "case/Cast"
  op: "Cast"
  input: "case/preds_c"
  device: "/device:CPU:0"
  attr {
    key: "DstT"
    value {
      type: DT_INT32
    }
  }
  attr {
    key: "SrcT"
    value {
      type: DT_BOOL
    }
  }
  attr {
    key: "_output_shapes"
    value {
      list {
        shape {
          dim {
            size: 2
          }
        }
      }
    }
  }
}
node {
  name: "case/Const"
  op: "Const"
  device: "/device:CPU:0"
  attr {
    key: "_output_shapes"
    value {
      list {
        shape {
          dim {
            size: 1
          }
        }
      }
    }
  }
  attr {
    key: "dtype"
    value {
      type: DT_INT32
    }
  }
  attr {
    key: "value"
    value {
      tensor {
        dtype: DT_INT32
        tensor_shape {
          dim {
            size: 1
          }
        }
        int_val: 0
      }
    }
  }
}
node {
  name: "case/num_true_conds"
  op: "Sum"
  input: "case/Cast"
  input: "case/Const"
  device: "/device:CPU:0"
  attr {
    key: "T"
    value {
      type: DT_INT32
    }
  }
  attr {
    key: "Tidx"
    value {
      type: DT_INT32
    }
  }
  attr {
    key: "_output_shapes"
    value {
      list {
        shape {
        }
      }
    }
  }
  attr {
    key: "keep_dims"
    value {
      b: false
    }
  }
}
node {
  name: "case/two_true_conds"
  op: "Const"
  device: "/device:CPU:0"
  attr {
    key: "_output_shapes"
    value {
      list {
        shape {
        }
      }
    }
  }
  attr {
    key: "dtype"
    value {
      type: DT_INT32
    }
  }
  attr {
    key: "value"
    value {
      tensor {
        dtype: DT_INT32
        tensor_shape {
        }
        int_val: 2
      }
    }
  }
}
node {
  name: "case/Less"
  op: "Less"
  input: "case/num_true_conds"
  input: "case/two_true_conds"
  device: "/device:CPU:0"
  attr {
    key: "T"
    value {
      type: DT_INT32
    }
  }
  attr {
    key: "_output_shapes"
    value {
      list {
        shape {
        }
      }
    }
  }
}
node {
  name: "case/Assert/AssertGuard/Switch"
  op: "Switch"
  input: "case/Less"
  input: "case/Less"
  device: "/device:CPU:0"
  attr {
    key: "T"
    value {
      type: DT_BOOL
    }
  }
  attr {
    key: "_output_shapes"
    value {
      list {
        shape {
        }
        shape {
        }
      }
    }
  }
}
node {
  name: "case/Assert/AssertGuard/switch_t"
  op: "Identity"
  input: "case/Assert/AssertGuard/Switch:1"
  device: "/device:CPU:0"
  attr {
    key: "T"
    value {
      type: DT_BOOL
    }
  }
  attr {
    key: "_output_shapes"
    value {
      list {
        shape {
        }
      }
    }
  }
}
node {
  name: "case/Assert/AssertGuard/switch_f"
  op: "Identity"
  input: "case/Assert/AssertGuard/Switch"
  device: "/device:CPU:0"
  attr {
    key: "T"
    value {
      type: DT_BOOL
    }
  }
  attr {
    key: "_output_shapes"
    value {
      list {
        shape {
        }
      }
    }
  }
}
node {
  name: "case/Assert/AssertGuard/pred_id"
  op: "Identity"
  input: "case/Less"
  device: "/device:CPU:0"
  attr {
    key: "T"
    value {
      type: DT_BOOL
    }
  }
  attr {
    key: "_output_shapes"
    value {
      list {
        shape {
        }
      }
    }
  }
}
node {
  name: "case/Assert/AssertGuard/NoOp"
  op: "NoOp"
  input: "^case/Assert/AssertGuard/switch_t"
  device: "/device:CPU:0"
}
node {
  name: "case/Assert/AssertGuard/control_dependency"
  op: "Identity"
  input: "case/Assert/AssertGuard/switch_t"
  input: "^case/Assert/AssertGuard/NoOp"
  device: "/device:CPU:0"
  attr {
    key: "T"
    value {
      type: DT_BOOL
    }
  }
  attr {
    key: "_class"
    value {
      list {
        s: "loc:@case/Assert/AssertGuard/switch_t"
      }
    }
  }
  attr {
    key: "_output_shapes"
    value {
      list {
        shape {
        }
      }
    }
  }
}
node {
  name: "case/Assert/AssertGuard/Assert/data_0"
  op: "Const"
  input: "^case/Assert/AssertGuard/switch_f"
  device: "/device:CPU:0"
  attr {
    key: "_output_shapes"
    value {
      list {
        shape {
        }
      }
    }
  }
  attr {
    key: "dtype"
    value {
      type: DT_STRING
    }
  }
  attr {
    key: "value"
    value {
      tensor {
        dtype: DT_STRING
        tensor_shape {
        }
        string_val: "…"
      }
    }
  }
}
node {
  name: "case/Assert/AssertGuard/Assert/Switch"
  op: "Switch"
  input: "case/Less"
  input: "case/Assert/AssertGuard/pred_id"
  device: "/device:CPU:0"
  attr {
    key: "T"
    value {
      type: DT_BOOL
    }
  }
  attr {
    key: "_class"
    value {
      list {
        s: "loc:@case/Less"
      }
    }
  }
  attr {
    key: "_output_shapes"
    value {
      list {
        shape {
        }
        shape {
        }
      }
    }
  }
}
node {
  name: "case/Assert/AssertGuard/Assert/Switch_1"
  op: "Switch"
  input: "case/preds_c"
  input: "case/Assert/AssertGuard/pred_id"
  device: "/device:CPU:0"
  attr {
    key: "T"
    value {
      type: DT_BOOL
    }
  }
  attr {
    key: "_class"
    value {
      list {
        s: "loc:@case/preds_c"
      }
    }
  }
  attr {
    key: "_output_shapes"
    value {
      list {
        shape {
          dim {
            size: 2
          }
        }
        shape {
          dim {
            size: 2
          }
        }
      }
    }
  }
}
node {
  name: "case/Assert/AssertGuard/Assert"
  op: "Assert"
  input: "case/Assert/AssertGuard/Assert/Switch"
  input: "case/Assert/AssertGuard/Assert/data_0"
  input: "case/Assert/AssertGuard/Assert/Switch_1"
  device: "/device:CPU:0"
  attr {
    key: "T"
    value {
      list {
        type: DT_STRING
        type: DT_BOOL
      }
    }
  }
  attr {
    key: "summarize"
    value {
      i: 2
    }
  }
}
node {
  name: "case/Assert/AssertGuard/control_dependency_1"
  op: "Identity"
  input: "case/Assert/AssertGuard/switch_f"
  input: "^case/Assert/AssertGuard/Assert"
  device: "/device:CPU:0"
  attr {
    key: "T"
    value {
      type: DT_BOOL
    }
  }
  attr {
    key: "_class"
    value {
      list {
        s: "loc:@case/Assert/AssertGuard/switch_f"
      }
    }
  }
  attr {
    key: "_output_shapes"
    value {
      list {
        shape {
        }
      }
    }
  }
}
node {
  name: "case/Assert/AssertGuard/Merge"
  op: "Merge"
  input: "case/Assert/AssertGuard/control_dependency_1"
  input: "case/Assert/AssertGuard/control_dependency"
  device: "/device:CPU:0"
  attr {
    key: "N"
    value {
      i: 2
    }
  }
  attr {
    key: "T"
    value {
      type: DT_BOOL
    }
  }
  attr {
    key: "_output_shapes"
    value {
      list {
        shape {
        }
        shape {
        }
      }
    }
  }
}
node {
  name: "case/If_0/Switch"
  op: "Switch"
  input: "case/and_not_1/LogicalAnd"
  input: "case/and_not_1/LogicalAnd"
  input: "^case/Assert/AssertGuard/Merge"
  device: "/device:CPU:0"
  attr {
    key: "T"
    value {
      type: DT_BOOL
    }
  }
  attr {
    key: "_output_shapes"
    value {
      list {
        shape {
        }
        shape {
        }
      }
    }
  }
}
node {
  name: "case/If_0/switch_t"
  op: "Identity"
  input: "case/If_0/Switch:1"
  device: "/device:CPU:0"
  attr {
    key: "T"
    value {
      type: DT_BOOL
    }
  }
  attr {
    key: "_output_shapes"
    value {
      list {
        shape {
        }
      }
    }
  }
}
node {
  name: "case/If_0/switch_f"
  op: "Identity"
  input: "case/If_0/Switch"
  device: "/device:CPU:0"
  attr {
    key: "T"
    value {
      type: DT_BOOL
    }
  }
  attr {
    key: "_output_shapes"
    value {
      list {
        shape {
        }
      }
    }
  }
}
node {
  name: "case/If_0/pred_id"
  op: "Identity"
  input: "case/and_not_1/LogicalAnd"
  input: "^case/Assert/AssertGuard/Merge"
  device: "/device:CPU:0"
  attr {
    key: "T"
    value {
      type: DT_BOOL
    }
  }
  attr {
    key: "_output_shapes"
    value {
      list {
        shape {
        }
      }
    }
  }
}
node {
  name: "case/If_0/DecodeJpeg/Switch"
  op: "Switch"
  input: "Reshape_2"
  input: "case/If_0/pred_id"
  device: "/device:CPU:0"
  attr {
    key: "T"
    value {
      type: DT_STRING
    }
  }
  attr {
    key: "_class"
    value {
      list {
        s: "loc:@Reshape_2"
      }
    }
  }
  attr {
    key: "_output_shapes"
    value {
      list {
        shape {
        }
        shape {
        }
      }
    }
  }
}
node {
  name: "case/If_0/DecodeJpeg"
  op: "DecodeJpeg"
  input: "case/If_0/DecodeJpeg/Switch:1"
  input: "^case/Assert/AssertGuard/Merge"
  device: "/device:CPU:0"
  attr {
    key: "_output_shapes"
    value {
      list {
        shape {
          dim {
            size: -1
          }
          dim {
            size: -1
          }
          dim {
            size: 3
          }
        }
      }
    }
  }
  attr {
    key: "acceptable_fraction"
    value {
      f: 1.0
    }
  }
  attr {
    key: "channels"
    value {
      i: 3
    }
  }
  attr {
    key: "fancy_upscaling"
    value {
      b: true
    }
  }
  attr {
    key: "ratio"
    value {
      i: 1
    }
  }
  attr {
    key: "try_recover_truncated"
    value {
      b: false
    }
  }
}
node {
  name: "case/If_0/Const"
  op: "Const"
  input: "^case/Assert/AssertGuard/Merge"
  input: "^case/If_0/switch_f"
  device: "/device:CPU:0"
  attr {
    key: "_output_shapes"
    value {
      list {
        shape {
        }
      }
    }
  }
  attr {
    key: "dtype"
    value {
      type: DT_UINT8
    }
  }
  attr {
    key: "value"
    value {
      tensor {
        dtype: DT_UINT8
        tensor_shape {
        }
        int_val: 0
      }
    }
  }
}
node {
  name: "case/If_0/Merge"
  op: "Merge"
  input: "case/If_0/Const"
  input: "case/If_0/DecodeJpeg"
  device: "/device:CPU:0"
  attr {
    key: "N"
    value {
      i: 2
    }
  }
  attr {
    key: "T"
    value {
      type: DT_UINT8
    }
  }
  attr {
    key: "_output_shapes"
    value {
      list {
        shape {
          unknown_rank: true
        }
        shape {
        }
      }
    }
  }
}
node {
  name: "case/If_1/Switch"
  op: "Switch"
  input: "case/case_1/LogicalAnd"
  input: "case/case_1/LogicalAnd"
  input: "^case/Assert/AssertGuard/Merge"
  device: "/device:CPU:0"
  attr {
    key: "T"
    value {
      type: DT_BOOL
    }
  }
  attr {
    key: "_output_shapes"
    value {
      list {
        shape {
        }
        shape {
        }
      }
    }
  }
}
node {
  name: "case/If_1/switch_t"
  op: "Identity"
  input: "case/If_1/Switch:1"
  device: "/device:CPU:0"
  attr {
    key: "T"
    value {
      type: DT_BOOL
    }
  }
  attr {
    key: "_output_shapes"
    value {
      list {
        shape {
        }
      }
    }
  }
}
node {
  name: "case/If_1/switch_f"
  op: "Identity"
  input: "case/If_1/Switch"
  device: "/device:CPU:0"
  attr {
    key: "T"
    value {
      type: DT_BOOL
    }
  }
  attr {
    key: "_output_shapes"
    value {
      list {
        shape {
        }
      }
    }
  }
}
node {
  name: "case/If_1/pred_id"
  op: "Identity"
  input: "case/case_1/LogicalAnd"
  input: "^case/Assert/AssertGuard/Merge"
  device: "/device:CPU:0"
  attr {
    key: "T"
    value {
      type: DT_BOOL
    }
  }
  attr {
    key: "_output_shapes"
    value {
      list {
        shape {
        }
      }
    }
  }
}
node {
  name: "case/If_1/DecodeRaw/Switch"
  op: "Switch"
  input: "Reshape_2"
  input: "case/If_1/pred_id"
  device: "/device:CPU:0"
  attr {
    key: "T"
    value {
      type: DT_STRING
    }
  }
  attr {
    key: "_class"
    value {
      list {
        s: "loc:@Reshape_2"
      }
    }
  }
  attr {
    key: "_output_shapes"
    value {
      list {
        shape {
        }
        shape {
        }
      }
    }
  }
}
node {
  name: "case/If_1/DecodeRaw"
  op: "DecodeRaw"
  input: "case/If_1/DecodeRaw/Switch:1"
  input: "^case/Assert/AssertGuard/Merge"
  device: "/device:CPU:0"
  attr {
    key: "_output_shapes"
    value {
      list {
        shape {
          dim {
            size: -1
          }
        }
      }
    }
  }
  attr {
    key: "little_endian"
    value {
      b: true
    }
  }
  attr {
    key: "out_type"
    value {
      type: DT_UINT8
    }
  }
}
node {
  name: "case/If_1/Switch_1"
  op: "Switch"
  input: "case/If_0/Merge"
  input: "case/If_1/pred_id"
  device: "/device:CPU:0"
  attr {
    key: "T"
    value {
      type: DT_UINT8
    }
  }
  attr {
    key: "_class"
    value {
      list {
        s: "loc:@case/If_0/Merge"
      }
    }
  }
  attr {
    key: "_output_shapes"
    value {
      list {
        shape {
          unknown_rank: true
        }
        shape {
          unknown_rank: true
        }
      }
    }
  }
}
node {
  name: "case/If_1/Merge"
  op: "Merge"
  input: "case/If_1/Switch_1"
  input: "case/If_1/DecodeRaw"
  device: "/device:CPU:0"
  attr {
    key: "N"
    value {
      i: 2
    }
  }
  attr {
    key: "T"
    value {
      type: DT_UINT8
    }
  }
  attr {
    key: "_output_shapes"
    value {
      list {
        shape {
          unknown_rank: true
        }
        shape {
        }
      }
    }
  }
}
node {
  name: "case/If_2/Switch"
  op: "Switch"
  input: "case/case_0/LogicalAnd"
  input: "case/case_0/LogicalAnd"
  input: "^case/Assert/AssertGuard/Merge"
  device: "/device:CPU:0"
  attr {
    key: "T"
    value {
      type: DT_BOOL
    }
  }
  attr {
    key: "_output_shapes"
    value {
      list {
        shape {
        }
        shape {
        }
      }
    }
  }
}
node {
  name: "case/If_2/switch_t"
  op: "Identity"
  input: "case/If_2/Switch:1"
  device: "/device:CPU:0"
  attr {
    key: "T"
    value {
      type: DT_BOOL
    }
  }
  attr {
    key: "_output_shapes"
    value {
      list {
        shape {
        }
      }
    }
  }
}
node {
  name: "case/If_2/switch_f"
  op: "Identity"
  input: "case/If_2/Switch"
  device: "/device:CPU:0"
  attr {
    key: "T"
    value {
      type: DT_BOOL
    }
  }
  attr {
    key: "_output_shapes"
    value {
      list {
        shape {
        }
      }
    }
  }
}
node {
  name: "case/If_2/pred_id"
  op: "Identity"
  input: "case/case_0/LogicalAnd"
  input: "^case/Assert/AssertGuard/Merge"
  device: "/device:CPU:0"
  attr {
    key: "T"
    value {
      type: DT_BOOL
    }
  }
  attr {
    key: "_output_shapes"
    value {
      list {
        shape {
        }
      }
    }
  }
}
node {
  name: "case/If_2/DecodePng/Switch"
  op: "Switch"
  input: "Reshape_2"
  input: "case/If_2/pred_id"
  device: "/device:CPU:0"
  attr {
    key: "T"
    value {
      type: DT_STRING
    }
  }
  attr {
    key: "_class"
    value {
      list {
        s: "loc:@Reshape_2"
      }
    }
  }
  attr {
    key: "_output_shapes"
    value {
      list {
        shape {
        }
        shape {
        }
      }
    }
  }
}
node {
  name: "case/If_2/DecodePng"
  op: "DecodePng"
  input: "case/If_2/DecodePng/Switch:1"
  input: "^case/Assert/AssertGuard/Merge"
  device: "/device:CPU:0"
  attr {
    key: "_output_shapes"
    value {
      list {
        shape {
          dim {
            size: -1
          }
          dim {
            size: -1
          }
          dim {
            size: 3
          }
        }
      }
    }
  }
  attr {
    key: "channels"
    value {
      i: 3
    }
  }
  attr {
    key: "dtype"
    value {
      type: DT_UINT8
    }
  }
}
node {
  name: "case/If_2/Switch_1"
  op: "Switch"
  input: "case/If_1/Merge"
  input: "case/If_2/pred_id"
  device: "/device:CPU:0"
  attr {
    key: "T"
    value {
      type: DT_UINT8
    }
  }
  attr {
    key: "_class"
    value {
      list {
        s: "loc:@case/If_1/Merge"
      }
    }
  }
  attr {
    key: "_output_shapes"
    value {
      list {
        shape {
          unknown_rank: true
        }
        shape {
          unknown_rank: true
        }
      }
    }
  }
}
node {
  name: "case/If_2/Merge"
  op: "Merge"
  input: "case/If_2/Switch_1"
  input: "case/If_2/DecodePng"
  device: "/device:CPU:0"
  attr {
    key: "N"
    value {
      i: 2
    }
  }
  attr {
    key: "T"
    value {
      type: DT_UINT8
    }
  }
  attr {
    key: "_output_shapes"
    value {
      list {
        shape {
          dim {
            size: -1
          }
          dim {
            size: -1
          }
          dim {
            size: 3
          }
        }
        shape {
        }
      }
    }
  }
}
node {
  name: "sub/y"
  op: "Const"
  device: "/device:CPU:0"
  attr {
    key: "_output_shapes"
    value {
      list {
        shape {
        }
      }
    }
  }
  attr {
    key: "dtype"
    value {
      type: DT_INT64
    }
  }
  attr {
    key: "value"
    value {
      tensor {
        dtype: DT_INT64
        tensor_shape {
        }
        int64_val: 0
      }
    }
  }
}
node {
  name: "sub"
  op: "Sub"
  input: "Reshape"
  input: "sub/y"
  device: "/device:CPU:0"
  attr {
    key: "T"
    value {
      type: DT_INT64
    }
  }
  attr {
    key: "_output_shapes"
    value {
      list {
        shape {
        }
      }
    }
  }
}
node {
  name: "distort_image/Const"
  op: "Const"
  device: "/device:CPU:0"
  attr {
    key: "_output_shapes"
    value {
      list {
        shape {
          dim {
            size: 1
          }
          dim {
            size: 1
          }
          dim {
            size: 4
          }
        }
      }
    }
  }
  attr {
    key: "dtype"
    value {
      type: DT_FLOAT
    }
  }
  attr {
    key: "value"
    value {
      tensor {
        dtype: DT_FLOAT
        tensor_shape {
          dim {
            size: 1
          }
          dim {
            size: 1
          }
          dim {
            size: 4
          }
        }
        tensor_content: "\000\000\000\000\000\000\000\000\000\000\200?\000\000\200?"
      }
    }
  }
}
node {
  name: "distort_image/convert_image/Cast"
  op: "Cast"
  input: "case/If_2/Merge"
  device: "/device:CPU:0"
  attr {
    key: "DstT"
    value {
      type: DT_FLOAT
    }
  }
  attr {
    key: "SrcT"
    value {
      type: DT_UINT8
    }
  }
  attr {
    key: "_output_shapes"
    value {
      list {
        shape {
          dim {
            size: -1
          }
          dim {
            size: -1
          }
          dim {
            size: 3
          }
        }
      }
    }
  }
}
node {
  name: "distort_image/convert_image/y"
  op: "Const"
  device: "/device:CPU:0"
  attr {
    key: "_output_shapes"
    value {
      list {
        shape {
        }
      }
    }
  }
  attr {
    key: "dtype"
    value {
      type: DT_FLOAT
    }
  }
  attr {
    key: "value"
    value {
      tensor {
        dtype: DT_FLOAT
        tensor_shape {
        }
        float_val: 0.00392156885937
      }
    }
  }
}
node {
  name: "distort_image/convert_image"
  op: "Mul"
  input: "distort_image/convert_image/Cast"
  input: "distort_image/convert_image/y"
  device: "/device:CPU:0"
  attr {
    key: "T"
    value {
      type: DT_FLOAT
    }
  }
  attr {
    key: "_output_shapes"
    value {
      list {
        shape {
          dim {
            size: -1
          }
          dim {
            size: -1
          }
          dim {
            size: 3
          }
        }
      }
    }
  }
}
node {
  name: "distort_image/ExpandDims/dim"
  op: "Const"
  device: "/device:CPU:0"
  attr {
    key: "_output_shapes"
    value {
      list {
        shape {
        }
      }
    }
  }
  attr {
    key: "dtype"
    value {
      type: DT_INT32
    }
  }
  attr {
    key: "value"
    value {
      tensor {
        dtype: DT_INT32
        tensor_shape {
        }
        int_val: 0
      }
    }
  }
}
node {
  name: "distort_image/ExpandDims"
  op: "ExpandDims"
  input: "distort_image/convert_image"
  input: "distort_image/ExpandDims/dim"
  device: "/device:CPU:0"
  attr {
    key: "T"
    value {
      type: DT_FLOAT
    }
  }
  attr {
    key: "Tdim"
    value {
      type: DT_INT32
    }
  }
  attr {
    key: "_output_shapes"
    value {
      list {
        shape {
          dim {
            size: 1
          }
          dim {
            size: -1
          }
          dim {
            size: -1
          }
          dim {
            size: 3
          }
        }
      }
    }
  }
}
node {
  name: "distort_image/DrawBoundingBoxes"
  op: "DrawBoundingBoxes"
  input: "distort_image/ExpandDims"
  input: "distort_image/Const"
  device: "/device:CPU:0"
  attr {
    key: "T"
    value {
      type: DT_FLOAT
    }
  }
  attr {
    key: "_output_shapes"
    value {
      list {
        shape {
          dim {
            size: 1
          }
          dim {
            size: -1
          }
          dim {
            size: -1
          }
          dim {
            size: 3
          }
        }
      }
    }
  }
}
node {
  name: "distort_image/ImageSummary/tag"
  op: "Const"
  device: "/device:CPU:0"
  attr {
    key: "_output_shapes"
    value {
      list {
        shape {
        }
      }
    }
  }
  attr {
    key: "dtype"
    value {
      type: DT_STRING
    }
  }
  attr {
    key: "value"
    value {
      tensor {
        dtype: DT_STRING
        tensor_shape {
        }
        string_val: "image_with_bounding_boxes"
      }
    }
  }
}
node {
  name: "distort_image/ImageSummary"
  op: "ImageSummary"
  input: "distort_image/ImageSummary/tag"
  input: "distort_image/DrawBoundingBoxes"
  device: "/device:CPU:0"
  attr {
    key: "T"
    value {
      type: DT_FLOAT
    }
  }
  attr {
    key: "_output_shapes"
    value {
      list {
        shape {
        }
      }
    }
  }
  attr {
    key: "bad_color"
    value {
      tensor {
        dtype: DT_UINT8
        tensor_shape {
          dim {
            size: 4
          }
        }
        int_val: 255
        int_val: 0
        int_val: 0
        int_val: 255
      }
    }
  }
  attr {
    key: "max_images"
    value {
      i: 3
    }
  }
}
node {
  name: "distort_image/distorted_bounding_box_crop/Shape"
  op: "Shape"
  input: "distort_image/convert_image"
  device: "/device:CPU:0"
  attr {
    key: "T"
    value {
      type: DT_FLOAT
    }
  }
  attr {
    key: "_output_shapes"
    value {
      list {
        shape {
          dim {
            size: 3
          }
        }
      }
    }
  }
  attr {
    key: "out_type"
    value {
      type: DT_INT32
    }
  }
}
node {
  name: "distort_image/distorted_bounding_box_crop/SampleDistortedBoundingBox"
  op: "SampleDistortedBoundingBox"
  input: "distort_image/distorted_bounding_box_crop/Shape"
  input: "distort_image/Const"
  device: "/device:CPU:0"
  attr {
    key: "T"
    value {
      type: DT_INT32
    }
  }
  attr {
    key: "_output_shapes"
    value {
      list {
        shape {
          dim {
            size: 3
          }
        }
        shape {
          dim {
            size: 3
          }
        }
        shape {
          dim {
            size: 1
          }
          dim {
            size: 1
          }
          dim {
            size: 4
          }
        }
      }
    }
  }
  attr {
    key: "area_range"
    value {
      list {
        f: 0.0500000007451
        f: 1.0
      }
    }
  }
  attr {
    key: "aspect_ratio_range"
    value {
      list {
        f: 0.75
        f: 1.33000004292
      }
    }
  }
  attr {
    key: "max_attempts"
    value {
      i: 100
    }
  }
  attr {
    key: "min_object_covered"
    value {
      f: 0.10000000149
    }
  }
  attr {
    key: "seed"
    value {
      i: 0
    }
  }
  attr {
    key: "seed2"
    value {
      i: 0
    }
  }
  attr {
    key: "use_image_if_no_bounding_boxes"
    value {
      b: true
    }
  }
}
node {
  name: "distort_image/distorted_bounding_box_crop/Slice"
  op: "Slice"
  input: "distort_image/convert_image"
  input: "distort_image/distorted_bounding_box_crop/SampleDistortedBoundingBox"
  input: "distort_image/distorted_bounding_box_crop/SampleDistortedBoundingBox:1"
  device: "/device:CPU:0"
  attr {
    key: "Index"
    value {
      type: DT_INT32
    }
  }
  attr {
    key: "T"
    value {
      type: DT_FLOAT
    }
  }
  attr {
    key: "_output_shapes"
    value {
      list {
        shape {
          dim {
            size: -1
          }
          dim {
            size: -1
          }
          dim {
            size: 3
          }
        }
      }
    }
  }
}
node {
  name: "distort_image/ExpandDims_1/dim"
  op: "Const"
  device: "/device:CPU:0"
  attr {
    key: "_output_shapes"
    value {
      list {
        shape {
        }
      }
    }
  }
  attr {
    key: "dtype"
    value {
      type: DT_INT32
    }
  }
  attr {
    key: "value"
    value {
      tensor {
        dtype: DT_INT32
        tensor_shape {
        }
        int_val: 0
      }
    }
  }
}
node {
  name: "distort_image/ExpandDims_1"
  op: "ExpandDims"
  input: "distort_image/convert_image"
  input: "distort_image/ExpandDims_1/dim"
  device: "/device:CPU:0"
  attr {
    key: "T"
    value {
      type: DT_FLOAT
    }
  }
  attr {
    key: "Tdim"
    value {
      type: DT_INT32
    }
  }
  attr {
    key: "_output_shapes"
    value {
      list {
        shape {
          dim {
            size: 1
          }
          dim {
            size: -1
          }
          dim {
            size: -1
          }
          dim {
            size: 3
          }
        }
      }
    }
  }
}
node {
  name: "distort_image/DrawBoundingBoxes_1"
  op: "DrawBoundingBoxes"
  input: "distort_image/ExpandDims_1"
  input: "distort_image/distorted_bounding_box_crop/SampleDistortedBoundingBox:2"
  device: "/device:CPU:0"
  attr {
    key: "T"
    value {
      type: DT_FLOAT
    }
  }
  attr {
    key: "_output_shapes"
    value {
      list {
        shape {
          dim {
            size: 1
          }
          dim {
            size: -1
          }
          dim {
            size: -1
          }
          dim {
            size: 3
          }
        }
      }
    }
  }
}
node {
  name: "distort_image/ImageSummary_1/tag"
  op: "Const"
  device: "/device:CPU:0"
  attr {
    key: "_output_shapes"
    value {
      list {
        shape {
        }
      }
    }
  }
  attr {
    key: "dtype"
    value {
      type: DT_STRING
    }
  }
  attr {
    key: "value"
    value {
      tensor {
        dtype: DT_STRING
        tensor_shape {
        }
        string_val: "images_with_distorted_bounding_box"
      }
    }
  }
}
node {
  name: "distort_image/ImageSummary_1"
  op: "ImageSummary"
  input: "distort_image/ImageSummary_1/tag"
  input: "distort_image/DrawBoundingBoxes_1"
  device: "/device:CPU:0"
  attr {
    key: "T"
    value {
      type: DT_FLOAT
    }
  }
  attr {
    key: "_output_shapes"
    value {
      list {
        shape {
        }
      }
    }
  }
  attr {
    key: "bad_color"
    value {
      tensor {
        dtype: DT_UINT8
        tensor_shape {
          dim {
            size: 4
          }
        }
        int_val: 255
        int_val: 0
        int_val: 0
        int_val: 255
      }
    }
  }
  attr {
    key: "max_images"
    value {
      i: 3
    }
  }
}
node {
  name: "distort_image/random_uniform/shape"
  op: "Const"
  device: "/device:CPU:0"
  attr {
    key: "_output_shapes"
    value {
      list {
        shape {
          dim {
          }
        }
      }
    }
  }
  attr {
    key: "dtype"
    value {
      type: DT_INT32
    }
  }
  attr {
    key: "value"
    value {
      tensor {
        dtype: DT_INT32
        tensor_shape {
          dim {
          }
        }
      }
    }
  }
}
node {
  name: "distort_image/random_uniform/min"
  op: "Const"
  device: "/device:CPU:0"
  attr {
    key: "_output_shapes"
    value {
      list {
        shape {
        }
      }
    }
  }
  attr {
    key: "dtype"
    value {
      type: DT_INT32
    }
  }
  attr {
    key: "value"
    value {
      tensor {
        dtype: DT_INT32
        tensor_shape {
        }
        int_val: 0
      }
    }
  }
}
node {
  name: "distort_image/random_uniform/max"
  op: "Const"
  device: "/device:CPU:0"
  attr {
    key: "_output_shapes"
    value {
      list {
        shape {
        }
      }
    }
  }
  attr {
    key: "dtype"
    value {
      type: DT_INT32
    }
  }
  attr {
    key: "value"
    value {
      tensor {
        dtype: DT_INT32
        tensor_shape {
        }
        int_val: 1
      }
    }
  }
}
node {
  name: "distort_image/random_uniform"
  op: "RandomUniformInt"
  input: "distort_image/random_uniform/shape"
  input: "distort_image/random_uniform/min"
  input: "distort_image/random_uniform/max"
  device: "/device:CPU:0"
  attr {
    key: "T"
    value {
      type: DT_INT32
    }
  }
  attr {
    key: "Tout"
    value {
      type: DT_INT32
    }
  }
  attr {
    key: "_output_shapes"
    value {
      list {
        shape {
        }
      }
    }
  }
  attr {
    key: "seed"
    value {
      i: 0
    }
  }
  attr {
    key: "seed2"
    value {
      i: 0
    }
  }
}
node {
  name: "distort_image/Equal/y"
  op: "Const"
  device: "/device:CPU:0"
  attr {
    key: "_output_shapes"
    value {
      list {
        shape {
        }
      }
    }
  }
  attr {
    key: "dtype"
    value {
      type: DT_INT32
    }
  }
  attr {
    key: "value"
    value {
      tensor {
        dtype: DT_INT32
        tensor_shape {
        }
        int_val: 0
      }
    }
  }
}
node {
  name: "distort_image/Equal"
  op: "Equal"
  input: "distort_image/random_uniform"
  input: "distort_image/Equal/y"
  device: "/device:CPU:0"
  attr {
    key: "T"
    value {
      type: DT_INT32
    }
  }
  attr {
    key: "_output_shapes"
    value {
      list {
        shape {
        }
      }
    }
  }
}
node {
  name: "distort_image/Switch"
  op: "Switch"
  input: "distort_image/distorted_bounding_box_crop/Slice"
  input: "distort_image/Equal"
  device: "/device:CPU:0"
  attr {
    key: "T"
    value {
      type: DT_FLOAT
    }
  }
  attr {
    key: "_output_shapes"
    value {
      list {
        shape {
          dim {
            size: -1
          }
          dim {
            size: -1
          }
          dim {
            size: 3
          }
        }
        shape {
          dim {
            size: -1
          }
          dim {
            size: -1
          }
          dim {
            size: 3
          }
        }
      }
    }
  }
}
node {
  name: "distort_image/ExpandDims_2/dim"
  op: "Const"
  device: "/device:CPU:0"
  attr {
    key: "_output_shapes"
    value {
      list {
        shape {
        }
      }
    }
  }
  attr {
    key: "dtype"
    value {
      type: DT_INT32
    }
  }
  attr {
    key: "value"
    value {
      tensor {
        dtype: DT_INT32
        tensor_shape {
        }
        int_val: 0
      }
    }
  }
}
node {
  name: "distort_image/ExpandDims_2"
  op: "ExpandDims"
  input: "distort_image/Switch:1"
  input: "distort_image/ExpandDims_2/dim"
  device: "/device:CPU:0"
  attr {
    key: "T"
    value {
      type: DT_FLOAT
    }
  }
  attr {
    key: "Tdim"
    value {
      type: DT_INT32
    }
  }
  attr {
    key: "_output_shapes"
    value {
      list {
        shape {
          dim {
            size: 1
          }
          dim {
            size: -1
          }
          dim {
            size: -1
          }
          dim {
            size: 3
          }
        }
      }
    }
  }
}
node {
  name: "distort_image/size"
  op: "Const"
  device: "/device:CPU:0"
  attr {
    key: "_output_shapes"
    value {
      list {
        shape {
          dim {
            size: 2
          }
        }
      }
    }
  }
  attr {
    key: "dtype"
    value {
      type: DT_INT32
    }
  }
  attr {
    key: "value"
    value {
      tensor {
        dtype: DT_INT32
        tensor_shape {
          dim {
            size: 2
          }
        }
        tensor_content: "\340\000\000\000\340\000\000\000"
      }
    }
  }
}
node {
  name: "distort_image/ResizeBilinear"
  op: "ResizeBilinear"
  input: "distort_image/ExpandDims_2"
  input: "distort_image/size"
  device: "/device:CPU:0"
  attr {
    key: "T"
    value {
      type: DT_FLOAT
    }
  }
  attr {
    key: "_output_shapes"
    value {
      list {
        shape {
          dim {
            size: 1
          }
          dim {
            size: 224
          }
          dim {
            size: 224
          }
          dim {
            size: 3
          }
        }
      }
    }
  }
  attr {
    key: "align_corners"
    value {
      b: false
    }
  }
}
node {
  name: "distort_image/Squeeze"
  op: "Squeeze"
  input: "distort_image/ResizeBilinear"
  device: "/device:CPU:0"
  attr {
    key: "T"
    value {
      type: DT_FLOAT
    }
  }
  attr {
    key: "_output_shapes"
    value {
      list {
        shape {
          dim {
            size: 224
          }
          dim {
            size: 224
          }
          dim {
            size: 3
          }
        }
      }
    }
  }
  attr {
    key: "squeeze_dims"
    value {
      list {
        i: 0
      }
    }
  }
}
node {
  name: "distort_image/Merge"
  op: "Merge"
  input: "distort_image/Squeeze"
  device: "/device:CPU:0"
  attr {
    key: "N"
    value {
      i: 1
    }
  }
  attr {
    key: "T"
    value {
      type: DT_FLOAT
    }
  }
  attr {
    key: "_output_shapes"
    value {
      list {
        shape {
          dim {
            size: 224
          }
          dim {
            size: 224
          }
          dim {
            size: 3
          }
        }
        shape {
        }
      }
    }
  }
}
node {
  name: "distort_image/ExpandDims_3/dim"
  op: "Const"
  device: "/device:CPU:0"
  attr {
    key: "_output_shapes"
    value {
      list {
        shape {
        }
      }
    }
  }
  attr {
    key: "dtype"
    value {
      type: DT_INT32
    }
  }
  attr {
    key: "value"
    value {
      tensor {
        dtype: DT_INT32
        tensor_shape {
        }
        int_val: 0
      }
    }
  }
}
node {
  name: "distort_image/ExpandDims_3"
  op: "ExpandDims"
  input: "distort_image/Merge"
  input: "distort_image/ExpandDims_3/dim"
  device: "/device:CPU:0"
  attr {
    key: "T"
    value {
      type: DT_FLOAT
    }
  }
  attr {
    key: "Tdim"
    value {
      type: DT_INT32
    }
  }
  attr {
    key: "_output_shapes"
    value {
      list {
        shape {
          dim {
            size: 1
          }
          dim {
            size: 224
          }
          dim {
            size: 224
          }
          dim {
            size: 3
          }
        }
      }
    }
  }
}
node {
  name: "distort_image/ImageSummary_2/tag"
  op: "Const"
  device: "/device:CPU:0"
  attr {
    key: "_output_shapes"
    value {
      list {
        shape {
        }
      }
    }
  }
  attr {
    key: "dtype"
    value {
      type: DT_STRING
    }
  }
  attr {
    key: "value"
    value {
      tensor {
        dtype: DT_STRING
        tensor_shape {
        }
        string_val: "cropped_resized_image"
      }
    }
  }
}
node {
  name: "distort_image/ImageSummary_2"
  op: "ImageSummary"
  input: "distort_image/ImageSummary_2/tag"
  input: "distort_image/ExpandDims_3"
  device: "/device:CPU:0"
  attr {
    key: "T"
    value {
      type: DT_FLOAT
    }
  }
  attr {
    key: "_output_shapes"
    value {
      list {
        shape {
        }
      }
    }
  }
  attr {
    key: "bad_color"
    value {
      tensor {
        dtype: DT_UINT8
        tensor_shape {
          dim {
            size: 4
          }
        }
        int_val: 255
        int_val: 0
        int_val: 0
        int_val: 255
      }
    }
  }
  attr {
    key: "max_images"
    value {
      i: 3
    }
  }
}
node {
  name: "distort_image/random_uniform_1/shape"
  op: "Const"
  device: "/device:CPU:0"
  attr {
    key: "_output_shapes"
    value {
      list {
        shape {
          dim {
          }
        }
      }
    }
  }
  attr {
    key: "dtype"
    value {
      type: DT_INT32
    }
  }
  attr {
    key: "value"
    value {
      tensor {
        dtype: DT_INT32
        tensor_shape {
          dim {
          }
        }
      }
    }
  }
}
node {
  name: "distort_image/random_uniform_1/min"
  op: "Const"
  device: "/device:CPU:0"
  attr {
    key: "_output_shapes"
    value {
      list {
        shape {
        }
      }
    }
  }
  attr {
    key: "dtype"
    value {
      type: DT_FLOAT
    }
  }
  attr {
    key: "value"
    value {
      tensor {
        dtype: DT_FLOAT
        tensor_shape {
        }
        float_val: 0.0
      }
    }
  }
}
node {
  name: "distort_image/random_uniform_1/max"
  op: "Const"
  device: "/device:CPU:0"
  attr {
    key: "_output_shapes"
    value {
      list {
        shape {
        }
      }
    }
  }
  attr {
    key: "dtype"
    value {
      type: DT_FLOAT
    }
  }
  attr {
    key: "value"
    value {
      tensor {
        dtype: DT_FLOAT
        tensor_shape {
        }
        float_val: 1.0
      }
    }
  }
}
node {
  name: "distort_image/random_uniform_1/RandomUniform"
  op: "RandomUniform"
  input: "distort_image/random_uniform_1/shape"
  device: "/device:CPU:0"
  attr {
    key: "T"
    value {
      type: DT_INT32
    }
  }
  attr {
    key: "_output_shapes"
    value {
      list {
        shape {
        }
      }
    }
  }
  attr {
    key: "dtype"
    value {
      type: DT_FLOAT
    }
  }
  attr {
    key: "seed"
    value {
      i: 0
    }
  }
  attr {
    key: "seed2"
    value {
      i: 0
    }
  }
}
node {
  name: "distort_image/random_uniform_1/sub"
  op: "Sub"
  input: "distort_image/random_uniform_1/max"
  input: "distort_image/random_uniform_1/min"
  device: "/device:CPU:0"
  attr {
    key: "T"
    value {
      type: DT_FLOAT
    }
  }
  attr {
    key: "_output_shapes"
    value {
      list {
        shape {
        }
      }
    }
  }
}
node {
  name: "distort_image/random_uniform_1/mul"
  op: "Mul"
  input: "distort_image/random_uniform_1/RandomUniform"
  input: "distort_image/random_uniform_1/sub"
  device: "/device:CPU:0"
  attr {
    key: "T"
    value {
      type: DT_FLOAT
    }
  }
  attr {
    key: "_output_shapes"
    value {
      list {
        shape {
        }
      }
    }
  }
}
node {
  name: "distort_image/random_uniform_1"
  op: "Add"
  input: "distort_image/random_uniform_1/mul"
  input: "distort_image/random_uniform_1/min"
  device: "/device:CPU:0"
  attr {
    key: "T"
    value {
      type: DT_FLOAT
    }
  }
  attr {
    key: "_output_shapes"
    value {
      list {
        shape {
        }
      }
    }
  }
}
node {
  name: "distort_image/pack/0"
  op: "Const"
  device: "/device:CPU:0"
  attr {
    key: "_output_shapes"
    value {
      list {
        shape {
        }
      }
    }
  }
  attr {
    key: "dtype"
    value {
      type: DT_FLOAT
    }
  }
  attr {
    key: "value"
    value {
      tensor {
        dtype: DT_FLOAT
        tensor_shape {
        }
        float_val: 1.0
      }
    }
  }
}
node {
  name: "distort_image/pack/2"
  op: "Const"
  device: "/device:CPU:0"
  attr {
    key: "_output_shapes"
    value {
      list {
        shape {
        }
      }
    }
  }
  attr {
    key: "dtype"
    value {
      type: DT_FLOAT
    }
  }
  attr {
    key: "value"
    value {
      tensor {
        dtype: DT_FLOAT
        tensor_shape {
        }
        float_val: 1.0
      }
    }
  }
}
node {
  name: "distort_image/pack"
  op: "Pack"
  input: "distort_image/pack/0"
  input: "distort_image/random_uniform_1"
  input: "distort_image/pack/2"
  device: "/device:CPU:0"
  attr {
    key: "N"
    value {
      i: 3
    }
  }
  attr {
    key: "T"
    value {
      type: DT_FLOAT
    }
  }
  attr {
    key: "_output_shapes"
    value {
      list {
        shape {
          dim {
            size: 3
          }
        }
      }
    }
  }
  attr {
    key: "axis"
    value {
      i: 0
    }
  }
}
node {
  name: "distort_image/Less/y"
  op: "Const"
  device: "/device:CPU:0"
  attr {
    key: "_output_shapes"
    value {
      list {
        shape {
        }
      }
    }
  }
  attr {
    key: "dtype"
    value {
      type: DT_FLOAT
    }
  }
  attr {
    key: "value"
    value {
      tensor {
        dtype: DT_FLOAT
        tensor_shape {
        }
        float_val: 0.5
      }
    }
  }
}
node {
  name: "distort_image/Less"
  op: "Less"
  input: "distort_image/pack"
  input: "distort_image/Less/y"
  device: "/device:CPU:0"
  attr {
    key: "T"
    value {
      type: DT_FLOAT
    }
  }
  attr {
    key: "_output_shapes"
    value {
      list {
        shape {
          dim {
            size: 3
          }
        }
      }
    }
  }
}
node {
  name: "distort_image/Reverse"
  op: "Reverse"
  input: "distort_image/Merge"
  input: "distort_image/Less"
  device: "/device:CPU:0"
  attr {
    key: "T"
    value {
      type: DT_FLOAT
    }
  }
  attr {
    key: "_output_shapes"
    value {
      list {
        shape {
          dim {
            size: 224
          }
          dim {
            size: 224
          }
          dim {
            size: 3
          }
        }
      }
    }
  }
}
node {
  name: "distort_image/random_uniform_2/shape"
  op: "Const"
  device: "/device:CPU:0"
  attr {
    key: "_output_shapes"
    value {
      list {
        shape {
          dim {
          }
        }
      }
    }
  }
  attr {
    key: "dtype"
    value {
      type: DT_INT32
    }
  }
  attr {
    key: "value"
    value {
      tensor {
        dtype: DT_INT32
        tensor_shape {
          dim {
          }
        }
      }
    }
  }
}
node {
  name: "distort_image/random_uniform_2/min"
  op: "Const"
  device: "/device:CPU:0"
  attr {
    key: "_output_shapes"
    value {
      list {
        shape {
        }
      }
    }
  }
  attr {
    key: "dtype"
    value {
      type: DT_INT32
    }
  }
  attr {
    key: "value"
    value {
      tensor {
        dtype: DT_INT32
        tensor_shape {
        }
        int_val: 0
      }
    }
  }
}
node {
  name: "distort_image/random_uniform_2/max"
  op: "Const"
  device: "/device:CPU:0"
  attr {
    key: "_output_shapes"
    value {
      list {
        shape {
        }
      }
    }
  }
  attr {
    key: "dtype"
    value {
      type: DT_INT32
    }
  }
  attr {
    key: "value"
    value {
      tensor {
        dtype: DT_INT32
        tensor_shape {
        }
        int_val: 4
      }
    }
  }
}
node {
  name: "distort_image/random_uniform_2"
  op: "RandomUniformInt"
  input: "distort_image/random_uniform_2/shape"
  input: "distort_image/random_uniform_2/min"
  input: "distort_image/random_uniform_2/max"
  device: "/device:CPU:0"
  attr {
    key: "T"
    value {
      type: DT_INT32
    }
  }
  attr {
    key: "Tout"
    value {
      type: DT_INT32
    }
  }
  attr {
    key: "_output_shapes"
    value {
      list {
        shape {
        }
      }
    }
  }
  attr {
    key: "seed"
    value {
      i: 0
    }
  }
  attr {
    key: "seed2"
    value {
      i: 0
    }
  }
}
node {
  name: "distort_image/Equal_1/y"
  op: "Const"
  device: "/device:CPU:0"
  attr {
    key: "_output_shapes"
    value {
      list {
        shape {
        }
      }
    }
  }
  attr {
    key: "dtype"
    value {
      type: DT_INT32
    }
  }
  attr {
    key: "value"
    value {
      tensor {
        dtype: DT_INT32
        tensor_shape {
        }
        int_val: 0
      }
    }
  }
}
node {
  name: "distort_image/Equal_1"
  op: "Equal"
  input: "distort_image/random_uniform_2"
  input: "distort_image/Equal_1/y"
  device: "/device:CPU:0"
  attr {
    key: "T"
    value {
      type: DT_INT32
    }
  }
  attr {
    key: "_output_shapes"
    value {
      list {
        shape {
        }
      }
    }
  }
}
node {
  name: "distort_image/Switch_1"
  op: "Switch"
  input: "distort_image/Reverse"
  input: "distort_image/Equal_1"
  device: "/device:CPU:0"
  attr {
    key: "T"
    value {
      type: DT_FLOAT
    }
  }
  attr {
    key: "_output_shapes"
    value {
      list {
        shape {
          dim {
            size: 224
          }
          dim {
            size: 224
          }
          dim {
            size: 3
          }
        }
        shape {
          dim {
            size: 224
          }
          dim {
            size: 224
          }
          dim {
            size: 3
          }
        }
      }
    }
  }
}
node {
  name: "distort_image/distort_color/random_uniform/shape"
  op: "Const"
  device: "/device:CPU:0"
  attr {
    key: "_output_shapes"
    value {
      list {
        shape {
          dim {
          }
        }
      }
    }
  }
  attr {
    key: "dtype"
    value {
      type: DT_INT32
    }
  }
  attr {
    key: "value"
    value {
      tensor {
        dtype: DT_INT32
        tensor_shape {
          dim {
          }
        }
      }
    }
  }
}
node {
  name: "distort_image/distort_color/random_uniform/min"
  op: "Const"
  device: "/device:CPU:0"
  attr {
    key: "_output_shapes"
    value {
      list {
        shape {
        }
      }
    }
  }
  attr {
    key: "dtype"
    value {
      type: DT_FLOAT
    }
  }
  attr {
    key: "value"
    value {
      tensor {
        dtype: DT_FLOAT
        tensor_shape {
        }
        float_val: -0.1254902035
      }
    }
  }
}
node {
  name: "distort_image/distort_color/random_uniform/max"
  op: "Const"
  device: "/device:CPU:0"
  attr {
    key: "_output_shapes"
    value {
      list {
        shape {
        }
      }
    }
  }
  attr {
    key: "dtype"
    value {
      type: DT_FLOAT
    }
  }
  attr {
    key: "value"
    value {
      tensor {
        dtype: DT_FLOAT
        tensor_shape {
        }
        float_val: 0.1254902035
      }
    }
  }
}
node {
  name: "distort_image/distort_color/random_uniform/RandomUniform"
  op: "RandomUniform"
  input: "distort_image/distort_color/random_uniform/shape"
  device: "/device:CPU:0"
  attr {
    key: "T"
    value {
      type: DT_INT32
    }
  }
  attr {
    key: "_output_shapes"
    value {
      list {
        shape {
        }
      }
    }
  }
  attr {
    key: "dtype"
    value {
      type: DT_FLOAT
    }
  }
  attr {
    key: "seed"
    value {
      i: 0
    }
  }
  attr {
    key: "seed2"
    value {
      i: 0
    }
  }
}
node {
  name: "distort_image/distort_color/random_uniform/sub"
  op: "Sub"
  input: "distort_image/distort_color/random_uniform/max"
  input: "distort_image/distort_color/random_uniform/min"
  device: "/device:CPU:0"
  attr {
    key: "T"
    value {
      type: DT_FLOAT
    }
  }
  attr {
    key: "_output_shapes"
    value {
      list {
        shape {
        }
      }
    }
  }
}
node {
  name: "distort_image/distort_color/random_uniform/mul"
  op: "Mul"
  input: "distort_image/distort_color/random_uniform/RandomUniform"
  input: "distort_image/distort_color/random_uniform/sub"
  device: "/device:CPU:0"
  attr {
    key: "T"
    value {
      type: DT_FLOAT
    }
  }
  attr {
    key: "_output_shapes"
    value {
      list {
        shape {
        }
      }
    }
  }
}
node {
  name: "distort_image/distort_color/random_uniform"
  op: "Add"
  input: "distort_image/distort_color/random_uniform/mul"
  input: "distort_image/distort_color/random_uniform/min"
  device: "/device:CPU:0"
  attr {
    key: "T"
    value {
      type: DT_FLOAT
    }
  }
  attr {
    key: "_output_shapes"
    value {
      list {
        shape {
        }
      }
    }
  }
}
node {
  name: "distort_image/distort_color/adjust_brightness/Identity"
  op: "Identity"
  input: "distort_image/Switch_1:1"
  device: "/device:CPU:0"
  attr {
    key: "T"
    value {
      type: DT_FLOAT
    }
  }
  attr {
    key: "_output_shapes"
    value {
      list {
        shape {
          dim {
            size: 224
          }
          dim {
            size: 224
          }
          dim {
            size: 3
          }
        }
      }
    }
  }
}
node {
  name: "distort_image/distort_color/adjust_brightness"
  op: "Add"
  input: "distort_image/distort_color/adjust_brightness/Identity"
  input: "distort_image/distort_color/random_uniform"
  device: "/device:CPU:0"
  attr {
    key: "T"
    value {
      type: DT_FLOAT
    }
  }
  attr {
    key: "_output_shapes"
    value {
      list {
        shape {
          dim {
            size: 224
          }
          dim {
            size: 224
          }
          dim {
            size: 3
          }
        }
      }
    }
  }
}
node {
  name: "distort_image/distort_color/adjust_brightness/Identity_1"
  op: "Identity"
  input: "distort_image/distort_color/adjust_brightness"
  device: "/device:CPU:0"
  attr {
    key: "T"
    value {
      type: DT_FLOAT
    }
  }
  attr {
    key: "_output_shapes"
    value {
      list {
        shape {
          dim {
            size: 224
          }
          dim {
            size: 224
          }
          dim {
            size: 3
          }
        }
      }
    }
  }
}
node {
  name: "distort_image/distort_color/random_uniform_1/shape"
  op: "Const"
  device: "/device:CPU:0"
  attr {
    key: "_output_shapes"
    value {
      list {
        shape {
          dim {
          }
        }
      }
    }
  }
  attr {
    key: "dtype"
    value {
      type: DT_INT32
    }
  }
  attr {
    key: "value"
    value {
      tensor {
        dtype: DT_INT32
        tensor_shape {
          dim {
          }
        }
      }
    }
  }
}
node {
  name: "distort_image/distort_color/random_uniform_1/min"
  op: "Const"
  device: "/device:CPU:0"
  attr {
    key: "_output_shapes"
    value {
      list {
        shape {
        }
      }
    }
  }
  attr {
    key: "dtype"
    value {
      type: DT_FLOAT
    }
  }
  attr {
    key: "value"
    value {
      tensor {
        dtype: DT_FLOAT
        tensor_shape {
        }
        float_val: 0.5
      }
    }
  }
}
node {
  name: "distort_image/distort_color/random_uniform_1/max"
  op: "Const"
  device: "/device:CPU:0"
  attr {
    key: "_output_shapes"
    value {
      list {
        shape {
        }
      }
    }
  }
  attr {
    key: "dtype"
    value {
      type: DT_FLOAT
    }
  }
  attr {
    key: "value"
    value {
      tensor {
        dtype: DT_FLOAT
        tensor_shape {
        }
        float_val: 1.5
      }
    }
  }
}
node {
  name: "distort_image/distort_color/random_uniform_1/RandomUniform"
  op: "RandomUniform"
  input: "distort_image/distort_color/random_uniform_1/shape"
  device: "/device:CPU:0"
  attr {
    key: "T"
    value {
      type: DT_INT32
    }
  }
  attr {
    key: "_output_shapes"
    value {
      list {
        shape {
        }
      }
    }
  }
  attr {
    key: "dtype"
    value {
      type: DT_FLOAT
    }
  }
  attr {
    key: "seed"
    value {
      i: 0
    }
  }
  attr {
    key: "seed2"
    value {
      i: 0
    }
  }
}
node {
  name: "distort_image/distort_color/random_uniform_1/sub"
  op: "Sub"
  input: "distort_image/distort_color/random_uniform_1/max"
  input: "distort_image/distort_color/random_uniform_1/min"
  device: "/device:CPU:0"
  attr {
    key: "T"
    value {
      type: DT_FLOAT
    }
  }
  attr {
    key: "_output_shapes"
    value {
      list {
        shape {
        }
      }
    }
  }
}
node {
  name: "distort_image/distort_color/random_uniform_1/mul"
  op: "Mul"
  input: "distort_image/distort_color/random_uniform_1/RandomUniform"
  input: "distort_image/distort_color/random_uniform_1/sub"
  device: "/device:CPU:0"
  attr {
    key: "T"
    value {
      type: DT_FLOAT
    }
  }
  attr {
    key: "_output_shapes"
    value {
      list {
        shape {
        }
      }
    }
  }
}
node {
  name: "distort_image/distort_color/random_uniform_1"
  op: "Add"
  input: "distort_image/distort_color/random_uniform_1/mul"
  input: "distort_image/distort_color/random_uniform_1/min"
  device: "/device:CPU:0"
  attr {
    key: "T"
    value {
      type: DT_FLOAT
    }
  }
  attr {
    key: "_output_shapes"
    value {
      list {
        shape {
        }
      }
    }
  }
}
node {
  name: "distort_image/distort_color/adjust_saturation/Identity"
  op: "Identity"
  input: "distort_image/distort_color/adjust_brightness/Identity_1"
  device: "/device:CPU:0"
  attr {
    key: "T"
    value {
      type: DT_FLOAT
    }
  }
  attr {
    key: "_output_shapes"
    value {
      list {
        shape {
          dim {
            size: 224
          }
          dim {
            size: 224
          }
          dim {
            size: 3
          }
        }
      }
    }
  }
}
node {
  name: "distort_image/distort_color/adjust_saturation/RGBToHSV"
  op: "RGBToHSV"
  input: "distort_image/distort_color/adjust_saturation/Identity"
  device: "/device:CPU:0"
  attr {
    key: "T"
    value {
      type: DT_FLOAT
    }
  }
  attr {
    key: "_output_shapes"
    value {
      list {
        shape {
          dim {
            size: 224
          }
          dim {
            size: 224
          }
          dim {
            size: 3
          }
        }
      }
    }
  }
}
node {
  name: "distort_image/distort_color/adjust_saturation/Slice/begin"
  op: "Const"
  device: "/device:CPU:0"
  attr {
    key: "_output_shapes"
    value {
      list {
        shape {
          dim {
            size: 3
          }
        }
      }
    }
  }
  attr {
    key: "dtype"
    value {
      type: DT_INT32
    }
  }
  attr {
    key: "value"
    value {
      tensor {
        dtype: DT_INT32
        tensor_shape {
          dim {
            size: 3
          }
        }
        tensor_content: "\000\000\000\000\000\000\000\000\000\000\000\000"
      }
    }
  }
}
node {
  name: "distort_image/distort_color/adjust_saturation/Slice/size"
  op: "Const"
  device: "/device:CPU:0"
  attr {
    key: "_output_shapes"
    value {
      list {
        shape {
          dim {
            size: 3
          }
        }
      }
    }
  }
  attr {
    key: "dtype"
    value {
      type: DT_INT32
    }
  }
  attr {
    key: "value"
    value {
      tensor {
        dtype: DT_INT32
        tensor_shape {
          dim {
            size: 3
          }
        }
        tensor_content: "\377\377\377\377\377\377\377\377\001\000\000\000"
      }
    }
  }
}
node {
  name: "distort_image/distort_color/adjust_saturation/Slice"
  op: "Slice"
  input: "distort_image/distort_color/adjust_saturation/RGBToHSV"
  input: "distort_image/distort_color/adjust_saturation/Slice/begin"
  input: "distort_image/distort_color/adjust_saturation/Slice/size"
  device: "/device:CPU:0"
  attr {
    key: "Index"
    value {
      type: DT_INT32
    }
  }
  attr {
    key: "T"
    value {
      type: DT_FLOAT
    }
  }
  attr {
    key: "_output_shapes"
    value {
      list {
        shape {
          dim {
            size: 224
          }
          dim {
            size: 224
          }
          dim {
            size: 1
          }
        }
      }
    }
  }
}
node {
  name: "distort_image/distort_color/adjust_saturation/Slice_1/begin"
  op: "Const"
  device: "/device:CPU:0"
  attr {
    key: "_output_shapes"
    value {
      list {
        shape {
          dim {
            size: 3
          }
        }
      }
    }
  }
  attr {
    key: "dtype"
    value {
      type: DT_INT32
    }
  }
  attr {
    key: "value"
    value {
      tensor {
        dtype: DT_INT32
        tensor_shape {
          dim {
            size: 3
          }
        }
        tensor_content: "\000\000\000\000\000\000\000\000\001\000\000\000"
      }
    }
  }
}
node {
  name: "distort_image/distort_color/adjust_saturation/Slice_1/size"
  op: "Const"
  device: "/device:CPU:0"
  attr {
    key: "_output_shapes"
    value {
      list {
        shape {
          dim {
            size: 3
          }
        }
      }
    }
  }
  attr {
    key: "dtype"
    value {
      type: DT_INT32
    }
  }
  attr {
    key: "value"
    value {
      tensor {
        dtype: DT_INT32
        tensor_shape {
          dim {
            size: 3
          }
        }
        tensor_content: "\377\377\377\377\377\377\377\377\001\000\000\000"
      }
    }
  }
}
node {
  name: "distort_image/distort_color/adjust_saturation/Slice_1"
  op: "Slice"
  input: "distort_image/distort_color/adjust_saturation/RGBToHSV"
  input: "distort_image/distort_color/adjust_saturation/Slice_1/begin"
  input: "distort_image/distort_color/adjust_saturation/Slice_1/size"
  device: "/device:CPU:0"
  attr {
    key: "Index"
    value {
      type: DT_INT32
    }
  }
  attr {
    key: "T"
    value {
      type: DT_FLOAT
    }
  }
  attr {
    key: "_output_shapes"
    value {
      list {
        shape {
          dim {
            size: 224
          }
          dim {
            size: 224
          }
          dim {
            size: 1
          }
        }
      }
    }
  }
}
node {
  name: "distort_image/distort_color/adjust_saturation/Slice_2/begin"
  op: "Const"
  device: "/device:CPU:0"
  attr {
    key: "_output_shapes"
    value {
      list {
        shape {
          dim {
            size: 3
          }
        }
      }
    }
  }
  attr {
    key: "dtype"
    value {
      type: DT_INT32
    }
  }
  attr {
    key: "value"
    value {
      tensor {
        dtype: DT_INT32
        tensor_shape {
          dim {
            size: 3
          }
        }
        tensor_content: "\000\000\000\000\000\000\000\000\002\000\000\000"
      }
    }
  }
}
node {
  name: "distort_image/distort_color/adjust_saturation/Slice_2/size"
  op: "Const"
  device: "/device:CPU:0"
  attr {
    key: "_output_shapes"
    value {
      list {
        shape {
          dim {
            size: 3
          }
        }
      }
    }
  }
  attr {
    key: "dtype"
    value {
      type: DT_INT32
    }
  }
  attr {
    key: "value"
    value {
      tensor {
        dtype: DT_INT32
        tensor_shape {
          dim {
            size: 3
          }
        }
        tensor_content: "\377\377\377\377\377\377\377\377\001\000\000\000"
      }
    }
  }
}
node {
  name: "distort_image/distort_color/adjust_saturation/Slice_2"
  op: "Slice"
  input: "distort_image/distort_color/adjust_saturation/RGBToHSV"
  input: "distort_image/distort_color/adjust_saturation/Slice_2/begin"
  input: "distort_image/distort_color/adjust_saturation/Slice_2/size"
  device: "/device:CPU:0"
  attr {
    key: "Index"
    value {
      type: DT_INT32
    }
  }
  attr {
    key: "T"
    value {
      type: DT_FLOAT
    }
  }
  attr {
    key: "_output_shapes"
    value {
      list {
        shape {
          dim {
            size: 224
          }
          dim {
            size: 224
          }
          dim {
            size: 1
          }
        }
      }
    }
  }
}
node {
  name: "distort_image/distort_color/adjust_saturation/mul"
  op: "Mul"
  input: "distort_image/distort_color/adjust_saturation/Slice_1"
  input: "distort_image/distort_color/random_uniform_1"
  device: "/device:CPU:0"
  attr {
    key: "T"
    value {
      type: DT_FLOAT
    }
  }
  attr {
    key: "_output_shapes"
    value {
      list {
        shape {
          dim {
            size: 224
          }
          dim {
            size: 224
          }
          dim {
            size: 1
          }
        }
      }
    }
  }
}
node {
  name: "distort_image/distort_color/adjust_saturation/clip_by_value/Minimum/y"
  op: "Const"
  device: "/device:CPU:0"
  attr {
    key: "_output_shapes"
    value {
      list {
        shape {
        }
      }
    }
  }
  attr {
    key: "dtype"
    value {
      type: DT_FLOAT
    }
  }
  attr {
    key: "value"
    value {
      tensor {
        dtype: DT_FLOAT
        tensor_shape {
        }
        float_val: 1.0
      }
    }
  }
}
node {
  name: "distort_image/distort_color/adjust_saturation/clip_by_value/Minimum"
  op: "Minimum"
  input: "distort_image/distort_color/adjust_saturation/mul"
  input: "distort_image/distort_color/adjust_saturation/clip_by_value/Minimum/y"
  device: "/device:CPU:0"
  attr {
    key: "T"
    value {
      type: DT_FLOAT
    }
  }
  attr {
    key: "_output_shapes"
    value {
      list {
        shape {
          dim {
            size: 224
          }
          dim {
            size: 224
          }
          dim {
            size: 1
          }
        }
      }
    }
  }
}
node {
  name: "distort_image/distort_color/adjust_saturation/clip_by_value/y"
  op: "Const"
  device: "/device:CPU:0"
  attr {
    key: "_output_shapes"
    value {
      list {
        shape {
        }
      }
    }
  }
  attr {
    key: "dtype"
    value {
      type: DT_FLOAT
    }
  }
  attr {
    key: "value"
    value {
      tensor {
        dtype: DT_FLOAT
        tensor_shape {
        }
        float_val: 0.0
      }
    }
  }
}
node {
  name: "distort_image/distort_color/adjust_saturation/clip_by_value"
  op: "Maximum"
  input: "distort_image/distort_color/adjust_saturation/clip_by_value/Minimum"
  input: "distort_image/distort_color/adjust_saturation/clip_by_value/y"
  device: "/device:CPU:0"
  attr {
    key: "T"
    value {
      type: DT_FLOAT
    }
  }
  attr {
    key: "_output_shapes"
    value {
      list {
        shape {
          dim {
            size: 224
          }
          dim {
            size: 224
          }
          dim {
            size: 1
          }
        }
      }
    }
  }
}
node {
  name: "distort_image/distort_color/adjust_saturation/concat/concat_dim"
  op: "Const"
  device: "/device:CPU:0"
  attr {
    key: "_output_shapes"
    value {
      list {
        shape {
        }
      }
    }
  }
  attr {
    key: "dtype"
    value {
      type: DT_INT32
    }
  }
  attr {
    key: "value"
    value {
      tensor {
        dtype: DT_INT32
        tensor_shape {
        }
        int_val: 2
      }
    }
  }
}
node {
  name: "distort_image/distort_color/adjust_saturation/concat"
  op: "Concat"
  input: "distort_image/distort_color/adjust_saturation/concat/concat_dim"
  input: "distort_image/distort_color/adjust_saturation/Slice"
  input: "distort_image/distort_color/adjust_saturation/clip_by_value"
  input: "distort_image/distort_color/adjust_saturation/Slice_2"
  device: "/device:CPU:0"
  attr {
    key: "N"
    value {
      i: 3
    }
  }
  attr {
    key: "T"
    value {
      type: DT_FLOAT
    }
  }
  attr {
    key: "_output_shapes"
    value {
      list {
        shape {
          dim {
            size: 224
          }
          dim {
            size: 224
          }
          dim {
            size: 3
          }
        }
      }
    }
  }
}
node {
  name: "distort_image/distort_color/adjust_saturation/HSVToRGB"
  op: "HSVToRGB"
  input: "distort_image/distort_color/adjust_saturation/concat"
  device: "/device:CPU:0"
  attr {
    key: "T"
    value {
      type: DT_FLOAT
    }
  }
  attr {
    key: "_output_shapes"
    value {
      list {
        shape {
          dim {
            size: 224
          }
          dim {
            size: 224
          }
          dim {
            size: 3
          }
        }
      }
    }
  }
}
node {
  name: "distort_image/distort_color/adjust_saturation/Identity_1"
  op: "Identity"
  input: "distort_image/distort_color/adjust_saturation/HSVToRGB"
  device: "/device:CPU:0"
  attr {
    key: "T"
    value {
      type: DT_FLOAT
    }
  }
  attr {
    key: "_output_shapes"
    value {
      list {
        shape {
          dim {
            size: 224
          }
          dim {
            size: 224
          }
          dim {
            size: 3
          }
        }
      }
    }
  }
}
node {
  name: "distort_image/distort_color/clip_by_value/Minimum/y"
  op: "Const"
  device: "/device:CPU:0"
  attr {
    key: "_output_shapes"
    value {
      list {
        shape {
        }
      }
    }
  }
  attr {
    key: "dtype"
    value {
      type: DT_FLOAT
    }
  }
  attr {
    key: "value"
    value {
      tensor {
        dtype: DT_FLOAT
        tensor_shape {
        }
        float_val: 1.0
      }
    }
  }
}
node {
  name: "distort_image/distort_color/clip_by_value/Minimum"
  op: "Minimum"
  input: "distort_image/distort_color/adjust_saturation/Identity_1"
  input: "distort_image/distort_color/clip_by_value/Minimum/y"
  device: "/device:CPU:0"
  attr {
    key: "T"
    value {
      type: DT_FLOAT
    }
  }
  attr {
    key: "_output_shapes"
    value {
      list {
        shape {
          dim {
            size: 224
          }
          dim {
            size: 224
          }
          dim {
            size: 3
          }
        }
      }
    }
  }
}
node {
  name: "distort_image/distort_color/clip_by_value/y"
  op: "Const"
  device: "/device:CPU:0"
  attr {
    key: "_output_shapes"
    value {
      list {
        shape {
        }
      }
    }
  }
  attr {
    key: "dtype"
    value {
      type: DT_FLOAT
    }
  }
  attr {
    key: "value"
    value {
      tensor {
        dtype: DT_FLOAT
        tensor_shape {
        }
        float_val: 0.0
      }
    }
  }
}
node {
  name: "distort_image/distort_color/clip_by_value"
  op: "Maximum"
  input: "distort_image/distort_color/clip_by_value/Minimum"
  input: "distort_image/distort_color/clip_by_value/y"
  device: "/device:CPU:0"
  attr {
    key: "T"
    value {
      type: DT_FLOAT
    }
  }
  attr {
    key: "_output_shapes"
    value {
      list {
        shape {
          dim {
            size: 224
          }
          dim {
            size: 224
          }
          dim {
            size: 3
          }
        }
      }
    }
  }
}
node {
  name: "distort_image/Equal_2/y"
  op: "Const"
  device: "/device:CPU:0"
  attr {
    key: "_output_shapes"
    value {
      list {
        shape {
        }
      }
    }
  }
  attr {
    key: "dtype"
    value {
      type: DT_INT32
    }
  }
  attr {
    key: "value"
    value {
      tensor {
        dtype: DT_INT32
        tensor_shape {
        }
        int_val: 1
      }
    }
  }
}
node {
  name: "distort_image/Equal_2"
  op: "Equal"
  input: "distort_image/random_uniform_2"
  input: "distort_image/Equal_2/y"
  device: "/device:CPU:0"
  attr {
    key: "T"
    value {
      type: DT_INT32
    }
  }
  attr {
    key: "_output_shapes"
    value {
      list {
        shape {
        }
      }
    }
  }
}
node {
  name: "distort_image/Switch_2"
  op: "Switch"
  input: "distort_image/Reverse"
  input: "distort_image/Equal_2"
  device: "/device:CPU:0"
  attr {
    key: "T"
    value {
      type: DT_FLOAT
    }
  }
  attr {
    key: "_output_shapes"
    value {
      list {
        shape {
          dim {
            size: 224
          }
          dim {
            size: 224
          }
          dim {
            size: 3
          }
        }
        shape {
          dim {
            size: 224
          }
          dim {
            size: 224
          }
          dim {
            size: 3
          }
        }
      }
    }
  }
}
node {
  name: "distort_image/distort_color_1/random_uniform/shape"
  op: "Const"
  device: "/device:CPU:0"
  attr {
    key: "_output_shapes"
    value {
      list {
        shape {
          dim {
          }
        }
      }
    }
  }
  attr {
    key: "dtype"
    value {
      type: DT_INT32
    }
  }
  attr {
    key: "value"
    value {
      tensor {
        dtype: DT_INT32
        tensor_shape {
          dim {
          }
        }
      }
    }
  }
}
node {
  name: "distort_image/distort_color_1/random_uniform/min"
  op: "Const"
  device: "/device:CPU:0"
  attr {
    key: "_output_shapes"
    value {
      list {
        shape {
        }
      }
    }
  }
  attr {
    key: "dtype"
    value {
      type: DT_FLOAT
    }
  }
  attr {
    key: "value"
    value {
      tensor {
        dtype: DT_FLOAT
        tensor_shape {
        }
        float_val: 0.5
      }
    }
  }
}
node {
  name: "distort_image/distort_color_1/random_uniform/max"
  op: "Const"
  device: "/device:CPU:0"
  attr {
    key: "_output_shapes"
    value {
      list {
        shape {
        }
      }
    }
  }
  attr {
    key: "dtype"
    value {
      type: DT_FLOAT
    }
  }
  attr {
    key: "value"
    value {
      tensor {
        dtype: DT_FLOAT
        tensor_shape {
        }
        float_val: 1.5
      }
    }
  }
}
node {
  name: "distort_image/distort_color_1/random_uniform/RandomUniform"
  op: "RandomUniform"
  input: "distort_image/distort_color_1/random_uniform/shape"
  device: "/device:CPU:0"
  attr {
    key: "T"
    value {
      type: DT_INT32
    }
  }
  attr {
    key: "_output_shapes"
    value {
      list {
        shape {
        }
      }
    }
  }
  attr {
    key: "dtype"
    value {
      type: DT_FLOAT
    }
  }
  attr {
    key: "seed"
    value {
      i: 0
    }
  }
  attr {
    key: "seed2"
    value {
      i: 0
    }
  }
}
node {
  name: "distort_image/distort_color_1/random_uniform/sub"
  op: "Sub"
  input: "distort_image/distort_color_1/random_uniform/max"
  input: "distort_image/distort_color_1/random_uniform/min"
  device: "/device:CPU:0"
  attr {
    key: "T"
    value {
      type: DT_FLOAT
    }
  }
  attr {
    key: "_output_shapes"
    value {
      list {
        shape {
        }
      }
    }
  }
}
node {
  name: "distort_image/distort_color_1/random_uniform/mul"
  op: "Mul"
  input: "distort_image/distort_color_1/random_uniform/RandomUniform"
  input: "distort_image/distort_color_1/random_uniform/sub"
  device: "/device:CPU:0"
  attr {
    key: "T"
    value {
      type: DT_FLOAT
    }
  }
  attr {
    key: "_output_shapes"
    value {
      list {
        shape {
        }
      }
    }
  }
}
node {
  name: "distort_image/distort_color_1/random_uniform"
  op: "Add"
  input: "distort_image/distort_color_1/random_uniform/mul"
  input: "distort_image/distort_color_1/random_uniform/min"
  device: "/device:CPU:0"
  attr {
    key: "T"
    value {
      type: DT_FLOAT
    }
  }
  attr {
    key: "_output_shapes"
    value {
      list {
        shape {
        }
      }
    }
  }
}
node {
  name: "distort_image/distort_color_1/adjust_saturation/Identity"
  op: "Identity"
  input: "distort_image/Switch_2:1"
  device: "/device:CPU:0"
  attr {
    key: "T"
    value {
      type: DT_FLOAT
    }
  }
  attr {
    key: "_output_shapes"
    value {
      list {
        shape {
          dim {
            size: 224
          }
          dim {
            size: 224
          }
          dim {
            size: 3
          }
        }
      }
    }
  }
}
node {
  name: "distort_image/distort_color_1/adjust_saturation/RGBToHSV"
  op: "RGBToHSV"
  input: "distort_image/distort_color_1/adjust_saturation/Identity"
  device: "/device:CPU:0"
  attr {
    key: "T"
    value {
      type: DT_FLOAT
    }
  }
  attr {
    key: "_output_shapes"
    value {
      list {
        shape {
          dim {
            size: 224
          }
          dim {
            size: 224
          }
          dim {
            size: 3
          }
        }
      }
    }
  }
}
node {
  name: "distort_image/distort_color_1/adjust_saturation/Slice/begin"
  op: "Const"
  device: "/device:CPU:0"
  attr {
    key: "_output_shapes"
    value {
      list {
        shape {
          dim {
            size: 3
          }
        }
      }
    }
  }
  attr {
    key: "dtype"
    value {
      type: DT_INT32
    }
  }
  attr {
    key: "value"
    value {
      tensor {
        dtype: DT_INT32
        tensor_shape {
          dim {
            size: 3
          }
        }
        tensor_content: "\000\000\000\000\000\000\000\000\000\000\000\000"
      }
    }
  }
}
node {
  name: "distort_image/distort_color_1/adjust_saturation/Slice/size"
  op: "Const"
  device: "/device:CPU:0"
  attr {
    key: "_output_shapes"
    value {
      list {
        shape {
          dim {
            size: 3
          }
        }
      }
    }
  }
  attr {
    key: "dtype"
    value {
      type: DT_INT32
    }
  }
  attr {
    key: "value"
    value {
      tensor {
        dtype: DT_INT32
        tensor_shape {
          dim {
            size: 3
          }
        }
        tensor_content: "\377\377\377\377\377\377\377\377\001\000\000\000"
      }
    }
  }
}
node {
  name: "distort_image/distort_color_1/adjust_saturation/Slice"
  op: "Slice"
  input: "distort_image/distort_color_1/adjust_saturation/RGBToHSV"
  input: "distort_image/distort_color_1/adjust_saturation/Slice/begin"
  input: "distort_image/distort_color_1/adjust_saturation/Slice/size"
  device: "/device:CPU:0"
  attr {
    key: "Index"
    value {
      type: DT_INT32
    }
  }
  attr {
    key: "T"
    value {
      type: DT_FLOAT
    }
  }
  attr {
    key: "_output_shapes"
    value {
      list {
        shape {
          dim {
            size: 224
          }
          dim {
            size: 224
          }
          dim {
            size: 1
          }
        }
      }
    }
  }
}
node {
  name: "distort_image/distort_color_1/adjust_saturation/Slice_1/begin"
  op: "Const"
  device: "/device:CPU:0"
  attr {
    key: "_output_shapes"
    value {
      list {
        shape {
          dim {
            size: 3
          }
        }
      }
    }
  }
  attr {
    key: "dtype"
    value {
      type: DT_INT32
    }
  }
  attr {
    key: "value"
    value {
      tensor {
        dtype: DT_INT32
        tensor_shape {
          dim {
            size: 3
          }
        }
        tensor_content: "\000\000\000\000\000\000\000\000\001\000\000\000"
      }
    }
  }
}
node {
  name: "distort_image/distort_color_1/adjust_saturation/Slice_1/size"
  op: "Const"
  device: "/device:CPU:0"
  attr {
    key: "_output_shapes"
    value {
      list {
        shape {
          dim {
            size: 3
          }
        }
      }
    }
  }
  attr {
    key: "dtype"
    value {
      type: DT_INT32
    }
  }
  attr {
    key: "value"
    value {
      tensor {
        dtype: DT_INT32
        tensor_shape {
          dim {
            size: 3
          }
        }
        tensor_content: "\377\377\377\377\377\377\377\377\001\000\000\000"
      }
    }
  }
}
node {
  name: "distort_image/distort_color_1/adjust_saturation/Slice_1"
  op: "Slice"
  input: "distort_image/distort_color_1/adjust_saturation/RGBToHSV"
  input: "distort_image/distort_color_1/adjust_saturation/Slice_1/begin"
  input: "distort_image/distort_color_1/adjust_saturation/Slice_1/size"
  device: "/device:CPU:0"
  attr {
    key: "Index"
    value {
      type: DT_INT32
    }
  }
  attr {
    key: "T"
    value {
      type: DT_FLOAT
    }
  }
  attr {
    key: "_output_shapes"
    value {
      list {
        shape {
          dim {
            size: 224
          }
          dim {
            size: 224
          }
          dim {
            size: 1
          }
        }
      }
    }
  }
}
node {
  name: "distort_image/distort_color_1/adjust_saturation/Slice_2/begin"
  op: "Const"
  device: "/device:CPU:0"
  attr {
    key: "_output_shapes"
    value {
      list {
        shape {
          dim {
            size: 3
          }
        }
      }
    }
  }
  attr {
    key: "dtype"
    value {
      type: DT_INT32
    }
  }
  attr {
    key: "value"
    value {
      tensor {
        dtype: DT_INT32
        tensor_shape {
          dim {
            size: 3
          }
        }
        tensor_content: "\000\000\000\000\000\000\000\000\002\000\000\000"
      }
    }
  }
}
node {
  name: "distort_image/distort_color_1/adjust_saturation/Slice_2/size"
  op: "Const"
  device: "/device:CPU:0"
  attr {
    key: "_output_shapes"
    value {
      list {
        shape {
          dim {
            size: 3
          }
        }
      }
    }
  }
  attr {
    key: "dtype"
    value {
      type: DT_INT32
    }
  }
  attr {
    key: "value"
    value {
      tensor {
        dtype: DT_INT32
        tensor_shape {
          dim {
            size: 3
          }
        }
        tensor_content: "\377\377\377\377\377\377\377\377\001\000\000\000"
      }
    }
  }
}
node {
  name: "distort_image/distort_color_1/adjust_saturation/Slice_2"
  op: "Slice"
  input: "distort_image/distort_color_1/adjust_saturation/RGBToHSV"
  input: "distort_image/distort_color_1/adjust_saturation/Slice_2/begin"
  input: "distort_image/distort_color_1/adjust_saturation/Slice_2/size"
  device: "/device:CPU:0"
  attr {
    key: "Index"
    value {
      type: DT_INT32
    }
  }
  attr {
    key: "T"
    value {
      type: DT_FLOAT
    }
  }
  attr {
    key: "_output_shapes"
    value {
      list {
        shape {
          dim {
            size: 224
          }
          dim {
            size: 224
          }
          dim {
            size: 1
          }
        }
      }
    }
  }
}
node {
  name: "distort_image/distort_color_1/adjust_saturation/mul"
  op: "Mul"
  input: "distort_image/distort_color_1/adjust_saturation/Slice_1"
  input: "distort_image/distort_color_1/random_uniform"
  device: "/device:CPU:0"
  attr {
    key: "T"
    value {
      type: DT_FLOAT
    }
  }
  attr {
    key: "_output_shapes"
    value {
      list {
        shape {
          dim {
            size: 224
          }
          dim {
            size: 224
          }
          dim {
            size: 1
          }
        }
      }
    }
  }
}
node {
  name: "distort_image/distort_color_1/adjust_saturation/clip_by_value/Minimum/y"
  op: "Const"
  device: "/device:CPU:0"
  attr {
    key: "_output_shapes"
    value {
      list {
        shape {
        }
      }
    }
  }
  attr {
    key: "dtype"
    value {
      type: DT_FLOAT
    }
  }
  attr {
    key: "value"
    value {
      tensor {
        dtype: DT_FLOAT
        tensor_shape {
        }
        float_val: 1.0
      }
    }
  }
}
node {
  name: "distort_image/distort_color_1/adjust_saturation/clip_by_value/Minimum"
  op: "Minimum"
  input: "distort_image/distort_color_1/adjust_saturation/mul"
  input: "distort_image/distort_color_1/adjust_saturation/clip_by_value/Minimum/y"
  device: "/device:CPU:0"
  attr {
    key: "T"
    value {
      type: DT_FLOAT
    }
  }
  attr {
    key: "_output_shapes"
    value {
      list {
        shape {
          dim {
            size: 224
          }
          dim {
            size: 224
          }
          dim {
            size: 1
          }
        }
      }
    }
  }
}
node {
  name: "distort_image/distort_color_1/adjust_saturation/clip_by_value/y"
  op: "Const"
  device: "/device:CPU:0"
  attr {
    key: "_output_shapes"
    value {
      list {
        shape {
        }
      }
    }
  }
  attr {
    key: "dtype"
    value {
      type: DT_FLOAT
    }
  }
  attr {
    key: "value"
    value {
      tensor {
        dtype: DT_FLOAT
        tensor_shape {
        }
        float_val: 0.0
      }
    }
  }
}
node {
  name: "distort_image/distort_color_1/adjust_saturation/clip_by_value"
  op: "Maximum"
  input: "distort_image/distort_color_1/adjust_saturation/clip_by_value/Minimum"
  input: "distort_image/distort_color_1/adjust_saturation/clip_by_value/y"
  device: "/device:CPU:0"
  attr {
    key: "T"
    value {
      type: DT_FLOAT
    }
  }
  attr {
    key: "_output_shapes"
    value {
      list {
        shape {
          dim {
            size: 224
          }
          dim {
            size: 224
          }
          dim {
            size: 1
          }
        }
      }
    }
  }
}
node {
  name: "distort_image/distort_color_1/adjust_saturation/concat/concat_dim"
  op: "Const"
  device: "/device:CPU:0"
  attr {
    key: "_output_shapes"
    value {
      list {
        shape {
        }
      }
    }
  }
  attr {
    key: "dtype"
    value {
      type: DT_INT32
    }
  }
  attr {
    key: "value"
    value {
      tensor {
        dtype: DT_INT32
        tensor_shape {
        }
        int_val: 2
      }
    }
  }
}
node {
  name: "distort_image/distort_color_1/adjust_saturation/concat"
  op: "Concat"
  input: "distort_image/distort_color_1/adjust_saturation/concat/concat_dim"
  input: "distort_image/distort_color_1/adjust_saturation/Slice"
  input: "distort_image/distort_color_1/adjust_saturation/clip_by_value"
  input: "distort_image/distort_color_1/adjust_saturation/Slice_2"
  device: "/device:CPU:0"
  attr {
    key: "N"
    value {
      i: 3
    }
  }
  attr {
    key: "T"
    value {
      type: DT_FLOAT
    }
  }
  attr {
    key: "_output_shapes"
    value {
      list {
        shape {
          dim {
            size: 224
          }
          dim {
            size: 224
          }
          dim {
            size: 3
          }
        }
      }
    }
  }
}
node {
  name: "distort_image/distort_color_1/adjust_saturation/HSVToRGB"
  op: "HSVToRGB"
  input: "distort_image/distort_color_1/adjust_saturation/concat"
  device: "/device:CPU:0"
  attr {
    key: "T"
    value {
      type: DT_FLOAT
    }
  }
  attr {
    key: "_output_shapes"
    value {
      list {
        shape {
          dim {
            size: 224
          }
          dim {
            size: 224
          }
          dim {
            size: 3
          }
        }
      }
    }
  }
}
node {
  name: "distort_image/distort_color_1/adjust_saturation/Identity_1"
  op: "Identity"
  input: "distort_image/distort_color_1/adjust_saturation/HSVToRGB"
  device: "/device:CPU:0"
  attr {
    key: "T"
    value {
      type: DT_FLOAT
    }
  }
  attr {
    key: "_output_shapes"
    value {
      list {
        shape {
          dim {
            size: 224
          }
          dim {
            size: 224
          }
          dim {
            size: 3
          }
        }
      }
    }
  }
}
node {
  name: "distort_image/distort_color_1/random_uniform_1/shape"
  op: "Const"
  device: "/device:CPU:0"
  attr {
    key: "_output_shapes"
    value {
      list {
        shape {
          dim {
          }
        }
      }
    }
  }
  attr {
    key: "dtype"
    value {
      type: DT_INT32
    }
  }
  attr {
    key: "value"
    value {
      tensor {
        dtype: DT_INT32
        tensor_shape {
          dim {
          }
        }
      }
    }
  }
}
node {
  name: "distort_image/distort_color_1/random_uniform_1/min"
  op: "Const"
  device: "/device:CPU:0"
  attr {
    key: "_output_shapes"
    value {
      list {
        shape {
        }
      }
    }
  }
  attr {
    key: "dtype"
    value {
      type: DT_FLOAT
    }
  }
  attr {
    key: "value"
    value {
      tensor {
        dtype: DT_FLOAT
        tensor_shape {
        }
        float_val: -0.1254902035
      }
    }
  }
}
node {
  name: "distort_image/distort_color_1/random_uniform_1/max"
  op: "Const"
  device: "/device:CPU:0"
  attr {
    key: "_output_shapes"
    value {
      list {
        shape {
        }
      }
    }
  }
  attr {
    key: "dtype"
    value {
      type: DT_FLOAT
    }
  }
  attr {
    key: "value"
    value {
      tensor {
        dtype: DT_FLOAT
        tensor_shape {
        }
        float_val: 0.1254902035
      }
    }
  }
}
node {
  name: "distort_image/distort_color_1/random_uniform_1/RandomUniform"
  op: "RandomUniform"
  input: "distort_image/distort_color_1/random_uniform_1/shape"
  device: "/device:CPU:0"
  attr {
    key: "T"
    value {
      type: DT_INT32
    }
  }
  attr {
    key: "_output_shapes"
    value {
      list {
        shape {
        }
      }
    }
  }
  attr {
    key: "dtype"
    value {
      type: DT_FLOAT
    }
  }
  attr {
    key: "seed"
    value {
      i: 0
    }
  }
  attr {
    key: "seed2"
    value {
      i: 0
    }
  }
}
node {
  name: "distort_image/distort_color_1/random_uniform_1/sub"
  op: "Sub"
  input: "distort_image/distort_color_1/random_uniform_1/max"
  input: "distort_image/distort_color_1/random_uniform_1/min"
  device: "/device:CPU:0"
  attr {
    key: "T"
    value {
      type: DT_FLOAT
    }
  }
  attr {
    key: "_output_shapes"
    value {
      list {
        shape {
        }
      }
    }
  }
}
node {
  name: "distort_image/distort_color_1/random_uniform_1/mul"
  op: "Mul"
  input: "distort_image/distort_color_1/random_uniform_1/RandomUniform"
  input: "distort_image/distort_color_1/random_uniform_1/sub"
  device: "/device:CPU:0"
  attr {
    key: "T"
    value {
      type: DT_FLOAT
    }
  }
  attr {
    key: "_output_shapes"
    value {
      list {
        shape {
        }
      }
    }
  }
}
node {
  name: "distort_image/distort_color_1/random_uniform_1"
  op: "Add"
  input: "distort_image/distort_color_1/random_uniform_1/mul"
  input: "distort_image/distort_color_1/random_uniform_1/min"
  device: "/device:CPU:0"
  attr {
    key: "T"
    value {
      type: DT_FLOAT
    }
  }
  attr {
    key: "_output_shapes"
    value {
      list {
        shape {
        }
      }
    }
  }
}
node {
  name: "distort_image/distort_color_1/adjust_brightness/Identity"
  op: "Identity"
  input: "distort_image/distort_color_1/adjust_saturation/Identity_1"
  device: "/device:CPU:0"
  attr {
    key: "T"
    value {
      type: DT_FLOAT
    }
  }
  attr {
    key: "_output_shapes"
    value {
      list {
        shape {
          dim {
            size: 224
          }
          dim {
            size: 224
          }
          dim {
            size: 3
          }
        }
      }
    }
  }
}
node {
  name: "distort_image/distort_color_1/adjust_brightness"
  op: "Add"
  input: "distort_image/distort_color_1/adjust_brightness/Identity"
  input: "distort_image/distort_color_1/random_uniform_1"
  device: "/device:CPU:0"
  attr {
    key: "T"
    value {
      type: DT_FLOAT
    }
  }
  attr {
    key: "_output_shapes"
    value {
      list {
        shape {
          dim {
            size: 224
          }
          dim {
            size: 224
          }
          dim {
            size: 3
          }
        }
      }
    }
  }
}
node {
  name: "distort_image/distort_color_1/adjust_brightness/Identity_1"
  op: "Identity"
  input: "distort_image/distort_color_1/adjust_brightness"
  device: "/device:CPU:0"
  attr {
    key: "T"
    value {
      type: DT_FLOAT
    }
  }
  attr {
    key: "_output_shapes"
    value {
      list {
        shape {
          dim {
            size: 224
          }
          dim {
            size: 224
          }
          dim {
            size: 3
          }
        }
      }
    }
  }
}
node {
  name: "distort_image/distort_color_1/clip_by_value/Minimum/y"
  op: "Const"
  device: "/device:CPU:0"
  attr {
    key: "_output_shapes"
    value {
      list {
        shape {
        }
      }
    }
  }
  attr {
    key: "dtype"
    value {
      type: DT_FLOAT
    }
  }
  attr {
    key: "value"
    value {
      tensor {
        dtype: DT_FLOAT
        tensor_shape {
        }
        float_val: 1.0
      }
    }
  }
}
node {
  name: "distort_image/distort_color_1/clip_by_value/Minimum"
  op: "Minimum"
  input: "distort_image/distort_color_1/adjust_brightness/Identity_1"
  input: "distort_image/distort_color_1/clip_by_value/Minimum/y"
  device: "/device:CPU:0"
  attr {
    key: "T"
    value {
      type: DT_FLOAT
    }
  }
  attr {
    key: "_output_shapes"
    value {
      list {
        shape {
          dim {
            size: 224
          }
          dim {
            size: 224
          }
          dim {
            size: 3
          }
        }
      }
    }
  }
}
node {
  name: "distort_image/distort_color_1/clip_by_value/y"
  op: "Const"
  device: "/device:CPU:0"
  attr {
    key: "_output_shapes"
    value {
      list {
        shape {
        }
      }
    }
  }
  attr {
    key: "dtype"
    value {
      type: DT_FLOAT
    }
  }
  attr {
    key: "value"
    value {
      tensor {
        dtype: DT_FLOAT
        tensor_shape {
        }
        float_val: 0.0
      }
    }
  }
}
node {
  name: "distort_image/distort_color_1/clip_by_value"
  op: "Maximum"
  input: "distort_image/distort_color_1/clip_by_value/Minimum"
  input: "distort_image/distort_color_1/clip_by_value/y"
  device: "/device:CPU:0"
  attr {
    key: "T"
    value {
      type: DT_FLOAT
    }
  }
  attr {
    key: "_output_shapes"
    value {
      list {
        shape {
          dim {
            size: 224
          }
          dim {
            size: 224
          }
          dim {
            size: 3
          }
        }
      }
    }
  }
}
node {
  name: "distort_image/Equal_3/y"
  op: "Const"
  device: "/device:CPU:0"
  attr {
    key: "_output_shapes"
    value {
      list {
        shape {
        }
      }
    }
  }
  attr {
    key: "dtype"
    value {
      type: DT_INT32
    }
  }
  attr {
    key: "value"
    value {
      tensor {
        dtype: DT_INT32
        tensor_shape {
        }
        int_val: 2
      }
    }
  }
}
node {
  name: "distort_image/Equal_3"
  op: "Equal"
  input: "distort_image/random_uniform_2"
  input: "distort_image/Equal_3/y"
  device: "/device:CPU:0"
  attr {
    key: "T"
    value {
      type: DT_INT32
    }
  }
  attr {
    key: "_output_shapes"
    value {
      list {
        shape {
        }
      }
    }
  }
}
node {
  name: "distort_image/Switch_3"
  op: "Switch"
  input: "distort_image/Reverse"
  input: "distort_image/Equal_3"
  device: "/device:CPU:0"
  attr {
    key: "T"
    value {
      type: DT_FLOAT
    }
  }
  attr {
    key: "_output_shapes"
    value {
      list {
        shape {
          dim {
            size: 224
          }
          dim {
            size: 224
          }
          dim {
            size: 3
          }
        }
        shape {
          dim {
            size: 224
          }
          dim {
            size: 224
          }
          dim {
            size: 3
          }
        }
      }
    }
  }
}
node {
  name: "distort_image/distort_color_2/random_uniform/shape"
  op: "Const"
  device: "/device:CPU:0"
  attr {
    key: "_output_shapes"
    value {
      list {
        shape {
          dim {
          }
        }
      }
    }
  }
  attr {
    key: "dtype"
    value {
      type: DT_INT32
    }
  }
  attr {
    key: "value"
    value {
      tensor {
        dtype: DT_INT32
        tensor_shape {
          dim {
          }
        }
      }
    }
  }
}
node {
  name: "distort_image/distort_color_2/random_uniform/min"
  op: "Const"
  device: "/device:CPU:0"
  attr {
    key: "_output_shapes"
    value {
      list {
        shape {
        }
      }
    }
  }
  attr {
    key: "dtype"
    value {
      type: DT_FLOAT
    }
  }
  attr {
    key: "value"
    value {
      tensor {
        dtype: DT_FLOAT
        tensor_shape {
        }
        float_val: 0.5
      }
    }
  }
}
node {
  name: "distort_image/distort_color_2/random_uniform/max"
  op: "Const"
  device: "/device:CPU:0"
  attr {
    key: "_output_shapes"
    value {
      list {
        shape {
        }
      }
    }
  }
  attr {
    key: "dtype"
    value {
      type: DT_FLOAT
    }
  }
  attr {
    key: "value"
    value {
      tensor {
        dtype: DT_FLOAT
        tensor_shape {
        }
        float_val: 1.5
      }
    }
  }
}
node {
  name: "distort_image/distort_color_2/random_uniform/RandomUniform"
  op: "RandomUniform"
  input: "distort_image/distort_color_2/random_uniform/shape"
  device: "/device:CPU:0"
  attr {
    key: "T"
    value {
      type: DT_INT32
    }
  }
  attr {
    key: "_output_shapes"
    value {
      list {
        shape {
        }
      }
    }
  }
  attr {
    key: "dtype"
    value {
      type: DT_FLOAT
    }
  }
  attr {
    key: "seed"
    value {
      i: 0
    }
  }
  attr {
    key: "seed2"
    value {
      i: 0
    }
  }
}
node {
  name: "distort_image/distort_color_2/random_uniform/sub"
  op: "Sub"
  input: "distort_image/distort_color_2/random_uniform/max"
  input: "distort_image/distort_color_2/random_uniform/min"
  device: "/device:CPU:0"
  attr {
    key: "T"
    value {
      type: DT_FLOAT
    }
  }
  attr {
    key: "_output_shapes"
    value {
      list {
        shape {
        }
      }
    }
  }
}
node {
  name: "distort_image/distort_color_2/random_uniform/mul"
  op: "Mul"
  input: "distort_image/distort_color_2/random_uniform/RandomUniform"
  input: "distort_image/distort_color_2/random_uniform/sub"
  device: "/device:CPU:0"
  attr {
    key: "T"
    value {
      type: DT_FLOAT
    }
  }
  attr {
    key: "_output_shapes"
    value {
      list {
        shape {
        }
      }
    }
  }
}
node {
  name: "distort_image/distort_color_2/random_uniform"
  op: "Add"
  input: "distort_image/distort_color_2/random_uniform/mul"
  input: "distort_image/distort_color_2/random_uniform/min"
  device: "/device:CPU:0"
  attr {
    key: "T"
    value {
      type: DT_FLOAT
    }
  }
  attr {
    key: "_output_shapes"
    value {
      list {
        shape {
        }
      }
    }
  }
}
node {
  name: "distort_image/distort_color_2/adjust_saturation/Identity"
  op: "Identity"
  input: "distort_image/Switch_3:1"
  device: "/device:CPU:0"
  attr {
    key: "T"
    value {
      type: DT_FLOAT
    }
  }
  attr {
    key: "_output_shapes"
    value {
      list {
        shape {
          dim {
            size: 224
          }
          dim {
            size: 224
          }
          dim {
            size: 3
          }
        }
      }
    }
  }
}
node {
  name: "distort_image/distort_color_2/adjust_saturation/RGBToHSV"
  op: "RGBToHSV"
  input: "distort_image/distort_color_2/adjust_saturation/Identity"
  device: "/device:CPU:0"
  attr {
    key: "T"
    value {
      type: DT_FLOAT
    }
  }
  attr {
    key: "_output_shapes"
    value {
      list {
        shape {
          dim {
            size: 224
          }
          dim {
            size: 224
          }
          dim {
            size: 3
          }
        }
      }
    }
  }
}
node {
  name: "distort_image/distort_color_2/adjust_saturation/Slice/begin"
  op: "Const"
  device: "/device:CPU:0"
  attr {
    key: "_output_shapes"
    value {
      list {
        shape {
          dim {
            size: 3
          }
        }
      }
    }
  }
  attr {
    key: "dtype"
    value {
      type: DT_INT32
    }
  }
  attr {
    key: "value"
    value {
      tensor {
        dtype: DT_INT32
        tensor_shape {
          dim {
            size: 3
          }
        }
        tensor_content: "\000\000\000\000\000\000\000\000\000\000\000\000"
      }
    }
  }
}
node {
  name: "distort_image/distort_color_2/adjust_saturation/Slice/size"
  op: "Const"
  device: "/device:CPU:0"
  attr {
    key: "_output_shapes"
    value {
      list {
        shape {
          dim {
            size: 3
          }
        }
      }
    }
  }
  attr {
    key: "dtype"
    value {
      type: DT_INT32
    }
  }
  attr {
    key: "value"
    value {
      tensor {
        dtype: DT_INT32
        tensor_shape {
          dim {
            size: 3
          }
        }
        tensor_content: "\377\377\377\377\377\377\377\377\001\000\000\000"
      }
    }
  }
}
node {
  name: "distort_image/distort_color_2/adjust_saturation/Slice"
  op: "Slice"
  input: "distort_image/distort_color_2/adjust_saturation/RGBToHSV"
  input: "distort_image/distort_color_2/adjust_saturation/Slice/begin"
  input: "distort_image/distort_color_2/adjust_saturation/Slice/size"
  device: "/device:CPU:0"
  attr {
    key: "Index"
    value {
      type: DT_INT32
    }
  }
  attr {
    key: "T"
    value {
      type: DT_FLOAT
    }
  }
  attr {
    key: "_output_shapes"
    value {
      list {
        shape {
          dim {
            size: 224
          }
          dim {
            size: 224
          }
          dim {
            size: 1
          }
        }
      }
    }
  }
}
node {
  name: "distort_image/distort_color_2/adjust_saturation/Slice_1/begin"
  op: "Const"
  device: "/device:CPU:0"
  attr {
    key: "_output_shapes"
    value {
      list {
        shape {
          dim {
            size: 3
          }
        }
      }
    }
  }
  attr {
    key: "dtype"
    value {
      type: DT_INT32
    }
  }
  attr {
    key: "value"
    value {
      tensor {
        dtype: DT_INT32
        tensor_shape {
          dim {
            size: 3
          }
        }
        tensor_content: "\000\000\000\000\000\000\000\000\001\000\000\000"
      }
    }
  }
}
node {
  name: "distort_image/distort_color_2/adjust_saturation/Slice_1/size"
  op: "Const"
  device: "/device:CPU:0"
  attr {
    key: "_output_shapes"
    value {
      list {
        shape {
          dim {
            size: 3
          }
        }
      }
    }
  }
  attr {
    key: "dtype"
    value {
      type: DT_INT32
    }
  }
  attr {
    key: "value"
    value {
      tensor {
        dtype: DT_INT32
        tensor_shape {
          dim {
            size: 3
          }
        }
        tensor_content: "\377\377\377\377\377\377\377\377\001\000\000\000"
      }
    }
  }
}
node {
  name: "distort_image/distort_color_2/adjust_saturation/Slice_1"
  op: "Slice"
  input: "distort_image/distort_color_2/adjust_saturation/RGBToHSV"
  input: "distort_image/distort_color_2/adjust_saturation/Slice_1/begin"
  input: "distort_image/distort_color_2/adjust_saturation/Slice_1/size"
  device: "/device:CPU:0"
  attr {
    key: "Index"
    value {
      type: DT_INT32
    }
  }
  attr {
    key: "T"
    value {
      type: DT_FLOAT
    }
  }
  attr {
    key: "_output_shapes"
    value {
      list {
        shape {
          dim {
            size: 224
          }
          dim {
            size: 224
          }
          dim {
            size: 1
          }
        }
      }
    }
  }
}
node {
  name: "distort_image/distort_color_2/adjust_saturation/Slice_2/begin"
  op: "Const"
  device: "/device:CPU:0"
  attr {
    key: "_output_shapes"
    value {
      list {
        shape {
          dim {
            size: 3
          }
        }
      }
    }
  }
  attr {
    key: "dtype"
    value {
      type: DT_INT32
    }
  }
  attr {
    key: "value"
    value {
      tensor {
        dtype: DT_INT32
        tensor_shape {
          dim {
            size: 3
          }
        }
        tensor_content: "\000\000\000\000\000\000\000\000\002\000\000\000"
      }
    }
  }
}
node {
  name: "distort_image/distort_color_2/adjust_saturation/Slice_2/size"
  op: "Const"
  device: "/device:CPU:0"
  attr {
    key: "_output_shapes"
    value {
      list {
        shape {
          dim {
            size: 3
          }
        }
      }
    }
  }
  attr {
    key: "dtype"
    value {
      type: DT_INT32
    }
  }
  attr {
    key: "value"
    value {
      tensor {
        dtype: DT_INT32
        tensor_shape {
          dim {
            size: 3
          }
        }
        tensor_content: "\377\377\377\377\377\377\377\377\001\000\000\000"
      }
    }
  }
}
node {
  name: "distort_image/distort_color_2/adjust_saturation/Slice_2"
  op: "Slice"
  input: "distort_image/distort_color_2/adjust_saturation/RGBToHSV"
  input: "distort_image/distort_color_2/adjust_saturation/Slice_2/begin"
  input: "distort_image/distort_color_2/adjust_saturation/Slice_2/size"
  device: "/device:CPU:0"
  attr {
    key: "Index"
    value {
      type: DT_INT32
    }
  }
  attr {
    key: "T"
    value {
      type: DT_FLOAT
    }
  }
  attr {
    key: "_output_shapes"
    value {
      list {
        shape {
          dim {
            size: 224
          }
          dim {
            size: 224
          }
          dim {
            size: 1
          }
        }
      }
    }
  }
}
node {
  name: "distort_image/distort_color_2/adjust_saturation/mul"
  op: "Mul"
  input: "distort_image/distort_color_2/adjust_saturation/Slice_1"
  input: "distort_image/distort_color_2/random_uniform"
  device: "/device:CPU:0"
  attr {
    key: "T"
    value {
      type: DT_FLOAT
    }
  }
  attr {
    key: "_output_shapes"
    value {
      list {
        shape {
          dim {
            size: 224
          }
          dim {
            size: 224
          }
          dim {
            size: 1
          }
        }
      }
    }
  }
}
node {
  name: "distort_image/distort_color_2/adjust_saturation/clip_by_value/Minimum/y"
  op: "Const"
  device: "/device:CPU:0"
  attr {
    key: "_output_shapes"
    value {
      list {
        shape {
        }
      }
    }
  }
  attr {
    key: "dtype"
    value {
      type: DT_FLOAT
    }
  }
  attr {
    key: "value"
    value {
      tensor {
        dtype: DT_FLOAT
        tensor_shape {
        }
        float_val: 1.0
      }
    }
  }
}
node {
  name: "distort_image/distort_color_2/adjust_saturation/clip_by_value/Minimum"
  op: "Minimum"
  input: "distort_image/distort_color_2/adjust_saturation/mul"
  input: "distort_image/distort_color_2/adjust_saturation/clip_by_value/Minimum/y"
  device: "/device:CPU:0"
  attr {
    key: "T"
    value {
      type: DT_FLOAT
    }
  }
  attr {
    key: "_output_shapes"
    value {
      list {
        shape {
          dim {
            size: 224
          }
          dim {
            size: 224
          }
          dim {
            size: 1
          }
        }
      }
    }
  }
}
node {
  name: "distort_image/distort_color_2/adjust_saturation/clip_by_value/y"
  op: "Const"
  device: "/device:CPU:0"
  attr {
    key: "_output_shapes"
    value {
      list {
        shape {
        }
      }
    }
  }
  attr {
    key: "dtype"
    value {
      type: DT_FLOAT
    }
  }
  attr {
    key: "value"
    value {
      tensor {
        dtype: DT_FLOAT
        tensor_shape {
        }
        float_val: 0.0
      }
    }
  }
}
node {
  name: "distort_image/distort_color_2/adjust_saturation/clip_by_value"
  op: "Maximum"
  input: "distort_image/distort_color_2/adjust_saturation/clip_by_value/Minimum"
  input: "distort_image/distort_color_2/adjust_saturation/clip_by_value/y"
  device: "/device:CPU:0"
  attr {
    key: "T"
    value {
      type: DT_FLOAT
    }
  }
  attr {
    key: "_output_shapes"
    value {
      list {
        shape {
          dim {
            size: 224
          }
          dim {
            size: 224
          }
          dim {
            size: 1
          }
        }
      }
    }
  }
}
node {
  name: "distort_image/distort_color_2/adjust_saturation/concat/concat_dim"
  op: "Const"
  device: "/device:CPU:0"
  attr {
    key: "_output_shapes"
    value {
      list {
        shape {
        }
      }
    }
  }
  attr {
    key: "dtype"
    value {
      type: DT_INT32
    }
  }
  attr {
    key: "value"
    value {
      tensor {
        dtype: DT_INT32
        tensor_shape {
        }
        int_val: 2
      }
    }
  }
}
node {
  name: "distort_image/distort_color_2/adjust_saturation/concat"
  op: "Concat"
  input: "distort_image/distort_color_2/adjust_saturation/concat/concat_dim"
  input: "distort_image/distort_color_2/adjust_saturation/Slice"
…
    }
  }
  attr {
    key: "_output_shapes"
    value {
      list {
        shape {
        }
      }
    }
  }
  attr {
    key: "dtype"
    value {
      type: DT_FLOAT
    }
  }
}
node {
  name: "init_ops/report_uninitialized_variables/IsVariableInitialized_232"
  op: "IsVariableInitialized"
  input: "InceptionV1/Logits/Conv2d_0c_1x1/weights/RMSProp_1"
  attr {
    key: "_class"
    value {
      list {
        s: "loc:@InceptionV1/Logits/Conv2d_0c_1x1/weights"
      }
    }
  }
  attr {
    key: "_output_shapes"
    value {
      list {
        shape {
        }
      }
    }
  }
  attr {
    key: "dtype"
    value {
      type: DT_FLOAT
    }
  }
}
node {
  name: "init_ops/report_uninitialized_variables/IsVariableInitialized_233"
  op: "IsVariableInitialized"
  input: "InceptionV1/Logits/Conv2d_0c_1x1/biases/RMSProp"
  attr {
    key: "_class"
    value {
      list {
        s: "loc:@InceptionV1/Logits/Conv2d_0c_1x1/biases"
      }
    }
  }
  attr {
    key: "_output_shapes"
    value {
      list {
        shape {
        }
      }
    }
  }
  attr {
    key: "dtype"
    value {
      type: DT_FLOAT
    }
  }
}
node {
  name: "init_ops/report_uninitialized_variables/IsVariableInitialized_234"
  op: "IsVariableInitialized"
  input: "InceptionV1/Logits/Conv2d_0c_1x1/biases/RMSProp_1"
  attr {
    key: "_class"
    value {
      list {
        s: "loc:@InceptionV1/Logits/Conv2d_0c_1x1/biases"
      }
    }
  }
  attr {
    key: "_output_shapes"
    value {
      list {
        shape {
        }
      }
    }
  }
  attr {
    key: "dtype"
    value {
      type: DT_FLOAT
    }
  }
}
node {
  name: "init_ops/report_uninitialized_variables/pack"
  op: "Pack"
  input: "init_ops/report_uninitialized_variables/IsVariableInitialized"
  input: "init_ops/report_uninitialized_variables/IsVariableInitialized_1"
  input: "init_ops/report_uninitialized_variables/IsVariableInitialized_2"
  input: "init_ops/report_uninitialized_variables/IsVariableInitialized_3"
  input: "init_ops/report_uninitialized_variables/IsVariableInitialized_4"
  input: "init_ops/report_uninitialized_variables/IsVariableInitialized_5"
  input: "init_ops/report_uninitialized_variables/IsVariableInitialized_6"
  input: "init_ops/report_uninitialized_variables/IsVariableInitialized_7"
  input: "init_ops/report_uninitialized_variables/IsVariableInitialized_8"
  input: "init_ops/report_uninitialized_variables/IsVariableInitialized_9"
  input: "init_ops/report_uninitialized_variables/IsVariableInitialized_10"
  input: "init_ops/report_uninitialized_variables/IsVariableInitialized_11"
  input: "init_ops/report_uninitialized_variables/IsVariableInitialized_12"
  input: "init_ops/report_uninitialized_variables/IsVariableInitialized_13"
  input: "init_ops/report_uninitialized_variables/IsVariableInitialized_14"
  input: "init_ops/report_uninitialized_variables/IsVariableInitialized_15"
  input: "init_ops/report_uninitialized_variables/IsVariableInitialized_16"
  input: "init_ops/report_uninitialized_variables/IsVariableInitialized_17"
  input: "init_ops/report_uninitialized_variables/IsVariableInitialized_18"
  input: "init_ops/report_uninitialized_variables/IsVariableInitialized_19"
  input: "init_ops/report_uninitialized_variables/IsVariableInitialized_20"
  input: "init_ops/report_uninitialized_variables/IsVariableInitialized_21"
  input: "init_ops/report_uninitialized_variables/IsVariableInitialized_22"
  input: "init_ops/report_uninitialized_variables/IsVariableInitialized_23"
  input: "init_ops/report_uninitialized_variables/IsVariableInitialized_24"
  input: "init_ops/report_uninitialized_variables/IsVariableInitialized_25"
  input: "init_ops/report_uninitialized_variables/IsVariableInitialized_26"
  input: "init_ops/report_uninitialized_variables/IsVariableInitialized_27"
  input: "init_ops/report_uninitialized_variables/IsVariableInitialized_28"
  input: "init_ops/report_uninitialized_variables/IsVariableInitialized_29"
  input: "init_ops/report_uninitialized_variables/IsVariableInitialized_30"
  input: "init_ops/report_uninitialized_variables/IsVariableInitialized_31"
  input: "init_ops/report_uninitialized_variables/IsVariableInitialized_32"
  input: "init_ops/report_uninitialized_variables/IsVariableInitialized_33"
  input: "init_ops/report_uninitialized_variables/IsVariableInitialized_34"
  input: "init_ops/report_uninitialized_variables/IsVariableInitialized_35"
  input: "init_ops/report_uninitialized_variables/IsVariableInitialized_36"
  input: "init_ops/report_uninitialized_variables/IsVariableInitialized_37"
  input: "init_ops/report_uninitialized_variables/IsVariableInitialized_38"
  input: "init_ops/report_uninitialized_variables/IsVariableInitialized_39"
  input: "init_ops/report_uninitialized_variables/IsVariableInitialized_40"
  input: "init_ops/report_uninitialized_variables/IsVariableInitialized_41"
  input: "init_ops/report_uninitialized_variables/IsVariableInitialized_42"
  input: "init_ops/report_uninitialized_variables/IsVariableInitialized_43"
  input: "init_ops/report_uninitialized_variables/IsVariableInitialized_44"
  input: "init_ops/report_uninitialized_variables/IsVariableInitialized_45"
  input: "init_ops/report_uninitialized_variables/IsVariableInitialized_46"
  input: "init_ops/report_uninitialized_variables/IsVariableInitialized_47"
  input: "init_ops/report_uninitialized_variables/IsVariableInitialized_48"
  input: "init_ops/report_uninitialized_variables/IsVariableInitialized_49"
  input: "init_ops/report_uninitialized_variables/IsVariableInitialized_50"
  input: "init_ops/report_uninitialized_variables/IsVariableInitialized_51"
  input: "init_ops/report_uninitialized_variables/IsVariableInitialized_52"
  input: "init_ops/report_uninitialized_variables/IsVariableInitialized_53"
  input: "init_ops/report_uninitialized_variables/IsVariableInitialized_54"
  input: "init_ops/report_uninitialized_variables/IsVariableInitialized_55"
  input: "init_ops/report_uninitialized_variables/IsVariableInitialized_56"
  input: "init_ops/report_uninitialized_variables/IsVariableInitialized_57"
  input: "init_ops/report_uninitialized_variables/IsVariableInitialized_58"
  input: "init_ops/report_uninitialized_variables/IsVariableInitialized_59"
  input: "init_ops/report_uninitialized_variables/IsVariableInitialized_60"
  input: "init_ops/report_uninitialized_variables/IsVariableInitialized_61"
  input: "init_ops/report_uninitialized_variables/IsVariableInitialized_62"
  input: "init_ops/report_uninitialized_variables/IsVariableInitialized_63"
  input: "init_ops/report_uninitialized_variables/IsVariableInitialized_64"
  input: "init_ops/report_uninitialized_variables/IsVariableInitialized_65"
  input: "init_ops/report_uninitialized_variables/IsVariableInitialized_66"
  input: "init_ops/report_uninitialized_variables/IsVariableInitialized_67"
  input: "init_ops/report_uninitialized_variables/IsVariableInitialized_68"
  input: "init_ops/report_uninitialized_variables/IsVariableInitialized_69"
  input: "init_ops/report_uninitialized_variables/IsVariableInitialized_70"
  input: "init_ops/report_uninitialized_variables/IsVariableInitialized_71"
  input: "init_ops/report_uninitialized_variables/IsVariableInitialized_72"
  input: "init_ops/report_uninitialized_variables/IsVariableInitialized_73"
  input: "init_ops/report_uninitialized_variables/IsVariableInitialized_74"
  input: "init_ops/report_uninitialized_variables/IsVariableInitialized_75"
  input: "init_ops/report_uninitialized_variables/IsVariableInitialized_76"
  input: "init_ops/report_uninitialized_variables/IsVariableInitialized_77"
  input: "init_ops/report_uninitialized_variables/IsVariableInitialized_78"
  input: "init_ops/report_uninitialized_variables/IsVariableInitialized_79"
  input: "init_ops/report_uninitialized_variables/IsVariableInitialized_80"
  input: "init_ops/report_uninitialized_variables/IsVariableInitialized_81"
  input: "init_ops/report_uninitialized_variables/IsVariableInitialized_82"
  input: "init_ops/report_uninitialized_variables/IsVariableInitialized_83"
  input: "init_ops/report_uninitialized_variables/IsVariableInitialized_84"
  input: "init_ops/report_uninitialized_variables/IsVariableInitialized_85"
  input: "init_ops/report_uninitialized_variables/IsVariableInitialized_86"
  input: "init_ops/report_uninitialized_variables/IsVariableInitialized_87"
  input: "init_ops/report_uninitialized_variables/IsVariableInitialized_88"
  input: "init_ops/report_uninitialized_variables/IsVariableInitialized_89"
  input: "init_ops/report_uninitialized_variables/IsVariableInitialized_90"
  input: "init_ops/report_uninitialized_variables/IsVariableInitialized_91"
  input: "init_ops/report_uninitialized_variables/IsVariableInitialized_92"
  input: "init_ops/report_uninitialized_variables/IsVariableInitialized_93"
  input: "init_ops/report_uninitialized_variables/IsVariableInitialized_94"
  input: "init_ops/report_uninitialized_variables/IsVariableInitialized_95"
  input: "init_ops/report_uninitialized_variables/IsVariableInitialized_96"
  input: "init_ops/report_uninitialized_variables/IsVariableInitialized_97"
  input: "init_ops/report_uninitialized_variables/IsVariableInitialized_98"
  input: "init_ops/report_uninitialized_variables/IsVariableInitialized_99"
  input: "init_ops/report_uninitialized_variables/IsVariableInitialized_100"
  input: "init_ops/report_uninitialized_variables/IsVariableInitialized_101"
  input: "init_ops/report_uninitialized_variables/IsVariableInitialized_102"
  input: "init_ops/report_uninitialized_variables/IsVariableInitialized_103"
  input: "init_ops/report_uninitialized_variables/IsVariableInitialized_104"
  input: "init_ops/report_uninitialized_variables/IsVariableInitialized_105"
  input: "init_ops/report_uninitialized_variables/IsVariableInitialized_106"
  input: "init_ops/report_uninitialized_variables/IsVariableInitialized_107"
  input: "init_ops/report_uninitialized_variables/IsVariableInitialized_108"
  input: "init_ops/report_uninitialized_variables/IsVariableInitialized_109"
  input: "init_ops/report_uninitialized_variables/IsVariableInitialized_110"
  input: "init_ops/report_uninitialized_variables/IsVariableInitialized_111"
  input: "init_ops/report_uninitialized_variables/IsVariableInitialized_112"
  input: "init_ops/report_uninitialized_variables/IsVariableInitialized_113"
  input: "init_ops/report_uninitialized_variables/IsVariableInitialized_114"
  input: "init_ops/report_uninitialized_variables/IsVariableInitialized_115"
  input: "init_ops/report_uninitialized_variables/IsVariableInitialized_116"
  input: "init_ops/report_uninitialized_variables/IsVariableInitialized_117"
  input: "init_ops/report_uninitialized_variables/IsVariableInitialized_118"
  input: "init_ops/report_uninitialized_variables/IsVariableInitialized_119"
  input: "init_ops/report_uninitialized_variables/IsVariableInitialized_120"
  input: "init_ops/report_uninitialized_variables/IsVariableInitialized_121"
  input: "init_ops/report_uninitialized_variables/IsVariableInitialized_122"
  input: "init_ops/report_uninitialized_variables/IsVariableInitialized_123"
  input: "init_ops/report_uninitialized_variables/IsVariableInitialized_124"
  input: "init_ops/report_uninitialized_variables/IsVariableInitialized_125"
  input: "init_ops/report_uninitialized_variables/IsVariableInitialized_126"
  input: "init_ops/report_uninitialized_variables/IsVariableInitialized_127"
  input: "init_ops/report_uninitialized_variables/IsVariableInitialized_128"
  input: "init_ops/report_uninitialized_variables/IsVariableInitialized_129"
  input: "init_ops/report_uninitialized_variables/IsVariableInitialized_130"
  input: "init_ops/report_uninitialized_variables/IsVariableInitialized_131"
  input: "init_ops/report_uninitialized_variables/IsVariableInitialized_132"
  input: "init_ops/report_uninitialized_variables/IsVariableInitialized_133"
  input: "init_ops/report_uninitialized_variables/IsVariableInitialized_134"
  input: "init_ops/report_uninitialized_variables/IsVariableInitialized_135"
  input: "init_ops/report_uninitialized_variables/IsVariableInitialized_136"
  input: "init_ops/report_uninitialized_variables/IsVariableInitialized_137"
  input: "init_ops/report_uninitialized_variables/IsVariableInitialized_138"
  input: "init_ops/report_uninitialized_variables/IsVariableInitialized_139"
  input: "init_ops/report_uninitialized_variables/IsVariableInitialized_140"
  input: "init_ops/report_uninitialized_variables/IsVariableInitialized_141"
  input: "init_ops/report_uninitialized_variables/IsVariableInitialized_142"
  input: "init_ops/report_uninitialized_variables/IsVariableInitialized_143"
  input: "init_ops/report_uninitialized_variables/IsVariableInitialized_144"
  input: "init_ops/report_uninitialized_variables/IsVariableInitialized_145"
  input: "init_ops/report_uninitialized_variables/IsVariableInitialized_146"
  input: "init_ops/report_uninitialized_variables/IsVariableInitialized_147"
  input: "init_ops/report_uninitialized_variables/IsVariableInitialized_148"
  input: "init_ops/report_uninitialized_variables/IsVariableInitialized_149"
  input: "init_ops/report_uninitialized_variables/IsVariableInitialized_150"
  input: "init_ops/report_uninitialized_variables/IsVariableInitialized_151"
  input: "init_ops/report_uninitialized_variables/IsVariableInitialized_152"
  input: "init_ops/report_uninitialized_variables/IsVariableInitialized_153"
  input: "init_ops/report_uninitialized_variables/IsVariableInitialized_154"
  input: "init_ops/report_uninitialized_variables/IsVariableInitialized_155"
  input: "init_ops/report_uninitialized_variables/IsVariableInitialized_156"
  input: "init_ops/report_uninitialized_variables/IsVariableInitialized_157"
  input: "init_ops/report_uninitialized_variables/IsVariableInitialized_158"
  input: "init_ops/report_uninitialized_variables/IsVariableInitialized_159"
  input: "init_ops/report_uninitialized_variables/IsVariableInitialized_160"
  input: "init_ops/report_uninitialized_variables/IsVariableInitialized_161"
  input: "init_ops/report_uninitialized_variables/IsVariableInitialized_162"
  input: "init_ops/report_uninitialized_variables/IsVariableInitialized_163"
  input: "init_ops/report_uninitialized_variables/IsVariableInitialized_164"
  input: "init_ops/report_uninitialized_variables/IsVariableInitialized_165"
  input: "init_ops/report_uninitialized_variables/IsVariableInitialized_166"
  input: "init_ops/report_uninitialized_variables/IsVariableInitialized_167"
  input: "init_ops/report_uninitialized_variables/IsVariableInitialized_168"
  input: "init_ops/report_uninitialized_variables/IsVariableInitialized_169"
  input: "init_ops/report_uninitialized_variables/IsVariableInitialized_170"
  input: "init_ops/report_uninitialized_variables/IsVariableInitialized_171"
  input: "init_ops/report_uninitialized_variables/IsVariableInitialized_172"
  input: "init_ops/report_uninitialized_variables/IsVariableInitialized_173"
  input: "init_ops/report_uninitialized_variables/IsVariableInitialized_174"
  input: "init_ops/report_uninitialized_variables/IsVariableInitialized_175"
  input: "init_ops/report_uninitialized_variables/IsVariableInitialized_176"
  input: "init_ops/report_uninitialized_variables/IsVariableInitialized_177"
  input: "init_ops/report_uninitialized_variables/IsVariableInitialized_178"
  input: "init_ops/report_uninitialized_variables/IsVariableInitialized_179"
  input: "init_ops/report_uninitialized_variables/IsVariableInitialized_180"
  input: "init_ops/report_uninitialized_variables/IsVariableInitialized_181"
  input: "init_ops/report_uninitialized_variables/IsVariableInitialized_182"
  input: "init_ops/report_uninitialized_variables/IsVariableInitialized_183"
  input: "init_ops/report_uninitialized_variables/IsVariableInitialized_184"
  input: "init_ops/report_uninitialized_variables/IsVariableInitialized_185"
  input: "init_ops/report_uninitialized_variables/IsVariableInitialized_186"
  input: "init_ops/report_uninitialized_variables/IsVariableInitialized_187"
  input: "init_ops/report_uninitialized_variables/IsVariableInitialized_188"
  input: "init_ops/report_uninitialized_variables/IsVariableInitialized_189"
  input: "init_ops/report_uninitialized_variables/IsVariableInitialized_190"
  input: "init_ops/report_uninitialized_variables/IsVariableInitialized_191"
  input: "init_ops/report_uninitialized_variables/IsVariableInitialized_192"
  input: "init_ops/report_uninitialized_variables/IsVariableInitialized_193"
  input: "init_ops/report_uninitialized_variables/IsVariableInitialized_194"
  input: "init_ops/report_uninitialized_variables/IsVariableInitialized_195"
  input: "init_ops/report_uninitialized_variables/IsVariableInitialized_196"
  input: "init_ops/report_uninitialized_variables/IsVariableInitialized_197"
  input: "init_ops/report_uninitialized_variables/IsVariableInitialized_198"
  input: "init_ops/report_uninitialized_variables/IsVariableInitialized_199"
  input: "init_ops/report_uninitialized_variables/IsVariableInitialized_200"
  input: "init_ops/report_uninitialized_variables/IsVariableInitialized_201"
  input: "init_ops/report_uninitialized_variables/IsVariableInitialized_202"
  input: "init_ops/report_uninitialized_variables/IsVariableInitialized_203"
  input: "init_ops/report_uninitialized_variables/IsVariableInitialized_204"
  input: "init_ops/report_uninitialized_variables/IsVariableInitialized_205"
  input: "init_ops/report_uninitialized_variables/IsVariableInitialized_206"
  input: "init_ops/report_uninitialized_variables/IsVariableInitialized_207"
  input: "init_ops/report_uninitialized_variables/IsVariableInitialized_208"
  input: "init_ops/report_uninitialized_variables/IsVariableInitialized_209"
  input: "init_ops/report_uninitialized_variables/IsVariableInitialized_210"
  input: "init_ops/report_uninitialized_variables/IsVariableInitialized_211"
  input: "init_ops/report_uninitialized_variables/IsVariableInitialized_212"
  input: "init_ops/report_uninitialized_variables/IsVariableInitialized_213"
  input: "init_ops/report_uninitialized_variables/IsVariableInitialized_214"
  input: "init_ops/report_uninitialized_variables/IsVariableInitialized_215"
  input: "init_ops/report_uninitialized_variables/IsVariableInitialized_216"
  input: "init_ops/report_uninitialized_variables/IsVariableInitialized_217"
  input: "init_ops/report_uninitialized_variables/IsVariableInitialized_218"
  input: "init_ops/report_uninitialized_variables/IsVariableInitialized_219"
  input: "init_ops/report_uninitialized_variables/IsVariableInitialized_220"
  input: "init_ops/report_uninitialized_variables/IsVariableInitialized_221"
  input: "init_ops/report_uninitialized_variables/IsVariableInitialized_222"
  input: "init_ops/report_uninitialized_variables/IsVariableInitialized_223"
  input: "init_ops/report_uninitialized_variables/IsVariableInitialized_224"
  input: "init_ops/report_uninitialized_variables/IsVariableInitialized_225"
  input: "init_ops/report_uninitialized_variables/IsVariableInitialized_226"
  input: "init_ops/report_uninitialized_variables/IsVariableInitialized_227"
  input: "init_ops/report_uninitialized_variables/IsVariableInitialized_228"
  input: "init_ops/report_uninitialized_variables/IsVariableInitialized_229"
  input: "init_ops/report_uninitialized_variables/IsVariableInitialized_230"
  input: "init_ops/report_uninitialized_variables/IsVariableInitialized_231"
  input: "init_ops/report_uninitialized_variables/IsVariableInitialized_232"
  input: "init_ops/report_uninitialized_variables/IsVariableInitialized_233"
  input: "init_ops/report_uninitialized_variables/IsVariableInitialized_234"
  attr {
    key: "N"
    value {
      i: 235
    }
  }
  attr {
    key: "T"
    value {
      type: DT_BOOL
    }
  }
  attr {
    key: "_output_shapes"
    value {
      list {
        shape {
          dim {
            size: 235
          }
        }
      }
    }
  }
  attr {
    key: "axis"
    value {
      i: 0
    }
  }
}
node {
  name: "init_ops/report_uninitialized_variables/LogicalNot"
  op: "LogicalNot"
  input: "init_ops/report_uninitialized_variables/pack"
  attr {
    key: "_output_shapes"
    value {
      list {
        shape {
          dim {
            size: 235
          }
        }
      }
    }
  }
}
node {
  name: "init_ops/report_uninitialized_variables/Const"
  op: "Const"
  attr {
    key: "_output_shapes"
    value {
      list {
        shape {
          dim {
            size: 235
          }
        }
      }
    }
  }
  attr {
    key: "dtype"
    value {
      type: DT_STRING
    }
  }
  attr {
    key: "value"
    value {
      tensor {
        dtype: DT_STRING
        tensor_shape {
          dim {
            size: 235
          }
        }
        string_val: "global_step"
        string_val: "InceptionV1/Conv2d_1a_7x7/weights"
        string_val: "InceptionV1/Conv2d_1a_7x7/BatchNorm/beta"
        string_val: "InceptionV1/Conv2d_1a_7x7/BatchNorm/moving_mean"
        string_val: "InceptionV1/Conv2d_1a_7x7/BatchNorm/moving_variance"
        string_val: "InceptionV1/Conv2d_2b_1x1/weights"
        string_val: "InceptionV1/Conv2d_2b_1x1/BatchNorm/beta"
        string_val: "InceptionV1/Conv2d_2b_1x1/BatchNorm/moving_mean"
        string_val: "InceptionV1/Conv2d_2b_1x1/BatchNorm/moving_variance"
        string_val: "InceptionV1/Conv2d_2c_3x3/weights"
        string_val: "InceptionV1/Conv2d_2c_3x3/BatchNorm/beta"
        string_val: "InceptionV1/Conv2d_2c_3x3/BatchNorm/moving_mean"
        string_val: "InceptionV1/Conv2d_2c_3x3/BatchNorm/moving_variance"
        string_val: "InceptionV1/Mixed_3b/Branch_0/Conv2d_0a_1x1/weights"
        string_val: "InceptionV1/Mixed_3b/Branch_0/Conv2d_0a_1x1/BatchNorm/beta"
        string_val: "InceptionV1/Mixed_3b/Branch_0/Conv2d_0a_1x1/BatchNorm/moving_mean"
        string_val: "InceptionV1/Mixed_3b/Branch_0/Conv2d_0a_1x1/BatchNorm/moving_variance"
        string_val: "InceptionV1/Mixed_3b/Branch_1/Conv2d_0a_1x1/weights"
        string_val: "InceptionV1/Mixed_3b/Branch_1/Conv2d_0a_1x1/BatchNorm/beta"
        string_val: "InceptionV1/Mixed_3b/Branch_1/Conv2d_0a_1x1/BatchNorm/moving_mean"
        string_val: "InceptionV1/Mixed_3b/Branch_1/Conv2d_0a_1x1/BatchNorm/moving_variance"
        string_val: "InceptionV1/Mixed_3b/Branch_1/Conv2d_0b_3x3/weights"
        string_val: "InceptionV1/Mixed_3b/Branch_1/Conv2d_0b_3x3/BatchNorm/beta"
        string_val: "InceptionV1/Mixed_3b/Branch_1/Conv2d_0b_3x3/BatchNorm/moving_mean"
        string_val: "InceptionV1/Mixed_3b/Branch_1/Conv2d_0b_3x3/BatchNorm/moving_variance"
        string_val: "InceptionV1/Mixed_3b/Branch_2/Conv2d_0a_1x1/weights"
        string_val: "InceptionV1/Mixed_3b/Branch_2/Conv2d_0a_1x1/BatchNorm/beta"
        string_val: "InceptionV1/Mixed_3b/Branch_2/Conv2d_0a_1x1/BatchNorm/moving_mean"
        string_val: "InceptionV1/Mixed_3b/Branch_2/Conv2d_0a_1x1/BatchNorm/moving_variance"
        string_val: "InceptionV1/Mixed_3b/Branch_2/Conv2d_0b_3x3/weights"
        string_val: "InceptionV1/Mixed_3b/Branch_2/Conv2d_0b_3x3/BatchNorm/beta"
        string_val: "InceptionV1/Mixed_3b/Branch_2/Conv2d_0b_3x3/BatchNorm/moving_mean"
        string_val: "InceptionV1/Mixed_3b/Branch_2/Conv2d_0b_3x3/BatchNorm/moving_variance"
        string_val: "InceptionV1/Mixed_3b/Branch_3/Conv2d_0b_1x1/weights"
        string_val: "InceptionV1/Mixed_3b/Branch_3/Conv2d_0b_1x1/BatchNorm/beta"
        string_val: "InceptionV1/Mixed_3b/Branch_3/Conv2d_0b_1x1/BatchNorm/moving_mean"
        string_val: "InceptionV1/Mixed_3b/Branch_3/Conv2d_0b_1x1/BatchNorm/moving_variance"
        string_val: "InceptionV1/Mixed_3c/Branch_0/Conv2d_0a_1x1/weights"
        string_val: "InceptionV1/Mixed_3c/Branch_0/Conv2d_0a_1x1/BatchNorm/beta"
        string_val: "InceptionV1/Mixed_3c/Branch_0/Conv2d_0a_1x1/BatchNorm/moving_mean"
        string_val: "InceptionV1/Mixed_3c/Branch_0/Conv2d_0a_1x1/BatchNorm/moving_variance"
        string_val: "InceptionV1/Mixed_3c/Branch_1/Conv2d_0a_1x1/weights"
        string_val: "InceptionV1/Mixed_3c/Branch_1/Conv2d_0a_1x1/BatchNorm/beta"
        string_val: "InceptionV1/Mixed_3c/Branch_1/Conv2d_0a_1x1/BatchNorm/moving_mean"
        string_val: "InceptionV1/Mixed_3c/Branch_1/Conv2d_0a_1x1/BatchNorm/moving_variance"
        string_val: "InceptionV1/Mixed_3c/Branch_1/Conv2d_0b_3x3/weights"
        string_val: "InceptionV1/Mixed_3c/Branch_1/Conv2d_0b_3x3/BatchNorm/beta"
        string_val: "InceptionV1/Mixed_3c/Branch_1/Conv2d_0b_3x3/BatchNorm/moving_mean"
        string_val: "InceptionV1/Mixed_3c/Branch_1/Conv2d_0b_3x3/BatchNorm/moving_variance"
        string_val: "InceptionV1/Mixed_3c/Branch_2/Conv2d_0a_1x1/weights"
        string_val: "InceptionV1/Mixed_3c/Branch_2/Conv2d_0a_1x1/BatchNorm/beta"
        string_val: "InceptionV1/Mixed_3c/Branch_2/Conv2d_0a_1x1/BatchNorm/moving_mean"
        string_val: "InceptionV1/Mixed_3c/Branch_2/Conv2d_0a_1x1/BatchNorm/moving_variance"
        string_val: "InceptionV1/Mixed_3c/Branch_2/Conv2d_0b_3x3/weights"
        string_val: "InceptionV1/Mixed_3c/Branch_2/Conv2d_0b_3x3/BatchNorm/beta"
        string_val: "InceptionV1/Mixed_3c/Branch_2/Conv2d_0b_3x3/BatchNorm/moving_mean"
        string_val: "InceptionV1/Mixed_3c/Branch_2/Conv2d_0b_3x3/BatchNorm/moving_variance"
        string_val: "InceptionV1/Mixed_3c/Branch_3/Conv2d_0b_1x1/weights"
        string_val: "InceptionV1/Mixed_3c/Branch_3/Conv2d_0b_1x1/BatchNorm/beta"
        string_val: "InceptionV1/Mixed_3c/Branch_3/Conv2d_0b_1x1/BatchNorm/moving_mean"
        string_val: "InceptionV1/Mixed_3c/Branch_3/Conv2d_0b_1x1/BatchNorm/moving_variance"
        string_val: "InceptionV1/Mixed_4b/Branch_0/Conv2d_0a_1x1/weights"
        string_val: "InceptionV1/Mixed_4b/Branch_0/Conv2d_0a_1x1/BatchNorm/beta"
        string_val: "InceptionV1/Mixed_4b/Branch_0/Conv2d_0a_1x1/BatchNorm/moving_mean"
        string_val: "InceptionV1/Mixed_4b/Branch_0/Conv2d_0a_1x1/BatchNorm/moving_variance"
        string_val: "InceptionV1/Mixed_4b/Branch_1/Conv2d_0a_1x1/weights"
        string_val: "InceptionV1/Mixed_4b/Branch_1/Conv2d_0a_1x1/BatchNorm/beta"
        string_val: "InceptionV1/Mixed_4b/Branch_1/Conv2d_0a_1x1/BatchNorm/moving_mean"
        string_val: "InceptionV1/Mixed_4b/Branch_1/Conv2d_0a_1x1/BatchNorm/moving_variance"
        string_val: "InceptionV1/Mixed_4b/Branch_1/Conv2d_0b_3x3/weights"
        string_val: "InceptionV1/Mixed_4b/Branch_1/Conv2d_0b_3x3/BatchNorm/beta"
        string_val: "InceptionV1/Mixed_4b/Branch_1/Conv2d_0b_3x3/BatchNorm/moving_mean"
        string_val: "InceptionV1/Mixed_4b/Branch_1/Conv2d_0b_3x3/BatchNorm/moving_variance"
        string_val: "InceptionV1/Mixed_4b/Branch_2/Conv2d_0a_1x1/weights"
        string_val: "InceptionV1/Mixed_4b/Branch_2/Conv2d_0a_1x1/BatchNorm/beta"
        string_val: "InceptionV1/Mixed_4b/Branch_2/Conv2d_0a_1x1/BatchNorm/moving_mean"
        string_val: "InceptionV1/Mixed_4b/Branch_2/Conv2d_0a_1x1/BatchNorm/moving_variance"
        string_val: "InceptionV1/Mixed_4b/Branch_2/Conv2d_0b_3x3/weights"
        string_val: "InceptionV1/Mixed_4b/Branch_2/Conv2d_0b_3x3/BatchNorm/beta"
        string_val: "InceptionV1/Mixed_4b/Branch_2/Conv2d_0b_3x3/BatchNorm/moving_mean"
        string_val: "InceptionV1/Mixed_4b/Branch_2/Conv2d_0b_3x3/BatchNorm/moving_variance"
        string_val: "InceptionV1/Mixed_4b/Branch_3/Conv2d_0b_1x1/weights"
        string_val: "InceptionV1/Mixed_4b/Branch_3/Conv2d_0b_1x1/BatchNorm/beta"
        string_val: "InceptionV1/Mixed_4b/Branch_3/Conv2d_0b_1x1/BatchNorm/moving_mean"
        string_val: "InceptionV1/Mixed_4b/Branch_3/Conv2d_0b_1x1/BatchNorm/moving_variance"
        string_val: "InceptionV1/Mixed_4c/Branch_0/Conv2d_0a_1x1/weights"
        string_val: "InceptionV1/Mixed_4c/Branch_0/Conv2d_0a_1x1/BatchNorm/beta"
        string_val: "InceptionV1/Mixed_4c/Branch_0/Conv2d_0a_1x1/BatchNorm/moving_mean"
        string_val: "InceptionV1/Mixed_4c/Branch_0/Conv2d_0a_1x1/BatchNorm/moving_variance"
        string_val: "InceptionV1/Mixed_4c/Branch_1/Conv2d_0a_1x1/weights"
        string_val: "InceptionV1/Mixed_4c/Branch_1/Conv2d_0a_1x1/BatchNorm/beta"
        string_val: "InceptionV1/Mixed_4c/Branch_1/Conv2d_0a_1x1/BatchNorm/moving_mean"
        string_val: "InceptionV1/Mixed_4c/Branch_1/Conv2d_0a_1x1/BatchNorm/moving_variance"
        string_val: "InceptionV1/Mixed_4c/Branch_1/Conv2d_0b_3x3/weights"
        string_val: "InceptionV1/Mixed_4c/Branch_1/Conv2d_0b_3x3/BatchNorm/beta"
        string_val: "InceptionV1/Mixed_4c/Branch_1/Conv2d_0b_3x3/BatchNorm/moving_mean"
        string_val: "InceptionV1/Mixed_4c/Branch_1/Conv2d_0b_3x3/BatchNorm/moving_variance"
        string_val: "InceptionV1/Mixed_4c/Branch_2/Conv2d_0a_1x1/weights"
        string_val: "InceptionV1/Mixed_4c/Branch_2/Conv2d_0a_1x1/BatchNorm/beta"
        string_val: "InceptionV1/Mixed_4c/Branch_2/Conv2d_0a_1x1/BatchNorm/moving_mean"
        string_val: "InceptionV1/Mixed_4c/Branch_2/Conv2d_0a_1x1/BatchNorm/moving_variance"
        string_val: "InceptionV1/Mixed_4c/Branch_2/Conv2d_0b_3x3/weights"
        string_val: "InceptionV1/Mixed_4c/Branch_2/Conv2d_0b_3x3/BatchNorm/beta"
        string_val: "InceptionV1/Mixed_4c/Branch_2/Conv2d_0b_3x3/BatchNorm/moving_mean"
        string_val: "InceptionV1/Mixed_4c/Branch_2/Conv2d_0b_3x3/BatchNorm/moving_variance"
        string_val: "InceptionV1/Mixed_4c/Branch_3/Conv2d_0b_1x1/weights"
        string_val: "InceptionV1/Mixed_4c/Branch_3/Conv2d_0b_1x1/BatchNorm/beta"
        string_val: "InceptionV1/Mixed_4c/Branch_3/Conv2d_0b_1x1/BatchNorm/moving_mean"
        string_val: "InceptionV1/Mixed_4c/Branch_3/Conv2d_0b_1x1/BatchNorm/moving_variance"
        string_val: "InceptionV1/Mixed_4d/Branch_0/Conv2d_0a_1x1/weights"
        string_val: "InceptionV1/Mixed_4d/Branch_0/Conv2d_0a_1x1/BatchNorm/beta"
        string_val: "InceptionV1/Mixed_4d/Branch_0/Conv2d_0a_1x1/BatchNorm/moving_mean"
        string_val: "InceptionV1/Mixed_4d/Branch_0/Conv2d_0a_1x1/BatchNorm/moving_variance"
        string_val: "InceptionV1/Mixed_4d/Branch_1/Conv2d_0a_1x1/weights"
        string_val: "InceptionV1/Mixed_4d/Branch_1/Conv2d_0a_1x1/BatchNorm/beta"
        string_val: "InceptionV1/Mixed_4d/Branch_1/Conv2d_0a_1x1/BatchNorm/moving_mean"
        string_val: "InceptionV1/Mixed_4d/Branch_1/Conv2d_0a_1x1/BatchNorm/moving_variance"
        string_val: "InceptionV1/Mixed_4d/Branch_1/Conv2d_0b_3x3/weights"
        string_val: "InceptionV1/Mixed_4d/Branch_1/Conv2d_0b_3x3/BatchNorm/beta"
        string_val: "InceptionV1/Mixed_4d/Branch_1/Conv2d_0b_3x3/BatchNorm/moving_mean"
        string_val: "InceptionV1/Mixed_4d/Branch_1/Conv2d_0b_3x3/BatchNorm/moving_variance"
        string_val: "InceptionV1/Mixed_4d/Branch_2/Conv2d_0a_1x1/weights"
        string_val: "InceptionV1/Mixed_4d/Branch_2/Conv2d_0a_1x1/BatchNorm/beta"
        string_val: "InceptionV1/Mixed_4d/Branch_2/Conv2d_0a_1x1/BatchNorm/moving_mean"
        string_val: "InceptionV1/Mixed_4d/Branch_2/Conv2d_0a_1x1/BatchNorm/moving_variance"
        string_val: "InceptionV1/Mixed_4d/Branch_2/Conv2d_0b_3x3/weights"
        string_val: "InceptionV1/Mixed_4d/Branch_2/Conv2d_0b_3x3/BatchNorm/beta"
        string_val: "InceptionV1/Mixed_4d/Branch_2/Conv2d_0b_3x3/BatchNorm/moving_mean"
        string_val: "InceptionV1/Mixed_4d/Branch_2/Conv2d_0b_3x3/BatchNorm/moving_variance"
        string_val: "InceptionV1/Mixed_4d/Branch_3/Conv2d_0b_1x1/weights"
        string_val: "InceptionV1/Mixed_4d/Branch_3/Conv2d_0b_1x1/BatchNorm/beta"
        string_val: "InceptionV1/Mixed_4d/Branch_3/Conv2d_0b_1x1/BatchNorm/moving_mean"
        string_val: "InceptionV1/Mixed_4d/Branch_3/Conv2d_0b_1x1/BatchNorm/moving_variance"
        string_val: "InceptionV1/Mixed_4e/Branch_0/Conv2d_0a_1x1/weights"
        string_val: "InceptionV1/Mixed_4e/Branch_0/Conv2d_0a_1x1/BatchNorm/beta"
        string_val: "InceptionV1/Mixed_4e/Branch_0/Conv2d_0a_1x1/BatchNorm/moving_mean"
        string_val: "InceptionV1/Mixed_4e/Branch_0/Conv2d_0a_1x1/BatchNorm/moving_variance"
        string_val: "InceptionV1/Mixed_4e/Branch_1/Conv2d_0a_1x1/weights"
        string_val: "InceptionV1/Mixed_4e/Branch_1/Conv2d_0a_1x1/BatchNorm/beta"
        string_val: "InceptionV1/Mixed_4e/Branch_1/Conv2d_0a_1x1/BatchNorm/moving_mean"
        string_val: "InceptionV1/Mixed_4e/Branch_1/Conv2d_0a_1x1/BatchNorm/moving_variance"
        string_val: "InceptionV1/Mixed_4e/Branch_1/Conv2d_0b_3x3/weights"
        string_val: "InceptionV1/Mixed_4e/Branch_1/Conv2d_0b_3x3/BatchNorm/beta"
        string_val: "InceptionV1/Mixed_4e/Branch_1/Conv2d_0b_3x3/BatchNorm/moving_mean"
        string_val: "InceptionV1/Mixed_4e/Branch_1/Conv2d_0b_3x3/BatchNorm/moving_variance"
        string_val: "InceptionV1/Mixed_4e/Branch_2/Conv2d_0a_1x1/weights"
        string_val: "InceptionV1/Mixed_4e/Branch_2/Conv2d_0a_1x1/BatchNorm/beta"
        string_val: "InceptionV1/Mixed_4e/Branch_2/Conv2d_0a_1x1/BatchNorm/moving_mean"
        string_val: "InceptionV1/Mixed_4e/Branch_2/Conv2d_0a_1x1/BatchNorm/moving_variance"
        string_val: "InceptionV1/Mixed_4e/Branch_2/Conv2d_0b_3x3/weights"
        string_val: "InceptionV1/Mixed_4e/Branch_2/Conv2d_0b_3x3/BatchNorm/beta"
        string_val: "InceptionV1/Mixed_4e/Branch_2/Conv2d_0b_3x3/BatchNorm/moving_mean"
        string_val: "InceptionV1/Mixed_4e/Branch_2/Conv2d_0b_3x3/BatchNorm/moving_variance"
        string_val: "InceptionV1/Mixed_4e/Branch_3/Conv2d_0b_1x1/weights"
        string_val: "InceptionV1/Mixed_4e/Branch_3/Conv2d_0b_1x1/BatchNorm/beta"
        string_val: "InceptionV1/Mixed_4e/Branch_3/Conv2d_0b_1x1/BatchNorm/moving_mean"
        string_val: "InceptionV1/Mixed_4e/Branch_3/Conv2d_0b_1x1/BatchNorm/moving_variance"
        string_val: "InceptionV1/Mixed_4f/Branch_0/Conv2d_0a_1x1/weights"
        string_val: "InceptionV1/Mixed_4f/Branch_0/Conv2d_0a_1x1/BatchNorm/beta"
        string_val: "InceptionV1/Mixed_4f/Branch_0/Conv2d_0a_1x1/BatchNorm/moving_mean"
        string_val: "InceptionV1/Mixed_4f/Branch_0/Conv2d_0a_1x1/BatchNorm/moving_variance"
        string_val: "InceptionV1/Mixed_4f/Branch_1/Conv2d_0a_1x1/weights"
        string_val: "InceptionV1/Mixed_4f/Branch_1/Conv2d_0a_1x1/BatchNorm/beta"
        string_val: "InceptionV1/Mixed_4f/Branch_1/Conv2d_0a_1x1/BatchNorm/moving_mean"
        string_val: "InceptionV1/Mixed_4f/Branch_1/Conv2d_0a_1x1/BatchNorm/moving_variance"
        string_val: "InceptionV1/Mixed_4f/Branch_1/Conv2d_0b_3x3/weights"
        string_val: "InceptionV1/Mixed_4f/Branch_1/Conv2d_0b_3x3/BatchNorm/beta"
        string_val: "InceptionV1/Mixed_4f/Branch_1/Conv2d_0b_3x3/BatchNorm/moving_mean"
        string_val: "InceptionV1/Mixed_4f/Branch_1/Conv2d_0b_3x3/BatchNorm/moving_variance"
        string_val: "InceptionV1/Mixed_4f/Branch_2/Conv2d_0a_1x1/weights"
        string_val: "InceptionV1/Mixed_4f/Branch_2/Conv2d_0a_1x1/BatchNorm/beta"
        string_val: "InceptionV1/Mixed_4f/Branch_2/Conv2d_0a_1x1/BatchNorm/moving_mean"
        string_val: "InceptionV1/Mixed_4f/Branch_2/Conv2d_0a_1x1/BatchNorm/moving_variance"
        string_val: "InceptionV1/Mixed_4f/Branch_2/Conv2d_0b_3x3/weights"
        string_val: "InceptionV1/Mixed_4f/Branch_2/Conv2d_0b_3x3/BatchNorm/beta"
        string_val: "InceptionV1/Mixed_4f/Branch_2/Conv2d_0b_3x3/BatchNorm/moving_mean"
        string_val: "InceptionV1/Mixed_4f/Branch_2/Conv2d_0b_3x3/BatchNorm/moving_variance"
        string_val: "InceptionV1/Mixed_4f/Branch_3/Conv2d_0b_1x1/weights"
        string_val: "InceptionV1/Mixed_4f/Branch_3/Conv2d_0b_1x1/BatchNorm/beta"
        string_val: "InceptionV1/Mixed_4f/Branch_3/Conv2d_0b_1x1/BatchNorm/moving_mean"
        string_val: "InceptionV1/Mixed_4f/Branch_3/Conv2d_0b_1x1/BatchNorm/moving_variance"
        string_val: "InceptionV1/Mixed_5b/Branch_0/Conv2d_0a_1x1/weights"
        string_val: "InceptionV1/Mixed_5b/Branch_0/Conv2d_0a_1x1/BatchNorm/beta"
        string_val: "InceptionV1/Mixed_5b/Branch_0/Conv2d_0a_1x1/BatchNorm/moving_mean"
        string_val: "InceptionV1/Mixed_5b/Branch_0/Conv2d_0a_1x1/BatchNorm/moving_variance"
        string_val: "InceptionV1/Mixed_5b/Branch_1/Conv2d_0a_1x1/weights"
        string_val: "InceptionV1/Mixed_5b/Branch_1/Conv2d_0a_1x1/BatchNorm/beta"
        string_val: "InceptionV1/Mixed_5b/Branch_1/Conv2d_0a_1x1/BatchNorm/moving_mean"
        string_val: "InceptionV1/Mixed_5b/Branch_1/Conv2d_0a_1x1/BatchNorm/moving_variance"
        string_val: "InceptionV1/Mixed_5b/Branch_1/Conv2d_0b_3x3/weights"
        string_val: "InceptionV1/Mixed_5b/Branch_1/Conv2d_0b_3x3/BatchNorm/beta"
        string_val: "InceptionV1/Mixed_5b/Branch_1/Conv2d_0b_3x3/BatchNorm/moving_mean"
        string_val: "InceptionV1/Mixed_5b/Branch_1/Conv2d_0b_3x3/BatchNorm/moving_variance"
        string_val: "InceptionV1/Mixed_5b/Branch_2/Conv2d_0a_1x1/weights"
        string_val: "InceptionV1/Mixed_5b/Branch_2/Conv2d_0a_1x1/BatchNorm/beta"
        string_val: "InceptionV1/Mixed_5b/Branch_2/Conv2d_0a_1x1/BatchNorm/moving_mean"
        string_val: "InceptionV1/Mixed_5b/Branch_2/Conv2d_0a_1x1/BatchNorm/moving_variance"
        string_val: "InceptionV1/Mixed_5b/Branch_2/Conv2d_0a_3x3/weights"
        string_val: "InceptionV1/Mixed_5b/Branch_2/Conv2d_0a_3x3/BatchNorm/beta"
        string_val: "InceptionV1/Mixed_5b/Branch_2/Conv2d_0a_3x3/BatchNorm/moving_mean"
        string_val: "InceptionV1/Mixed_5b/Branch_2/Conv2d_0a_3x3/BatchNorm/moving_variance"
        string_val: "InceptionV1/Mixed_5b/Branch_3/Conv2d_0b_1x1/weights"
        string_val: "InceptionV1/Mixed_5b/Branch_3/Conv2d_0b_1x1/BatchNorm/beta"
        string_val: "InceptionV1/Mixed_5b/Branch_3/Conv2d_0b_1x1/BatchNorm/moving_mean"
        string_val: "InceptionV1/Mixed_5b/Branch_3/Conv2d_0b_1x1/BatchNorm/moving_variance"
        string_val: "InceptionV1/Mixed_5c/Branch_0/Conv2d_0a_1x1/weights"
        string_val: "InceptionV1/Mixed_5c/Branch_0/Conv2d_0a_1x1/BatchNorm/beta"
        string_val: "InceptionV1/Mixed_5c/Branch_0/Conv2d_0a_1x1/BatchNorm/moving_mean"
        string_val: "InceptionV1/Mixed_5c/Branch_0/Conv2d_0a_1x1/BatchNorm/moving_variance"
        string_val: "InceptionV1/Mixed_5c/Branch_1/Conv2d_0a_1x1/weights"
        string_val: "InceptionV1/Mixed_5c/Branch_1/Conv2d_0a_1x1/BatchNorm/beta"
        string_val: "InceptionV1/Mixed_5c/Branch_1/Conv2d_0a_1x1/BatchNorm/moving_mean"
        string_val: "InceptionV1/Mixed_5c/Branch_1/Conv2d_0a_1x1/BatchNorm/moving_variance"
        string_val: "InceptionV1/Mixed_5c/Branch_1/Conv2d_0b_3x3/weights"
        string_val: "InceptionV1/Mixed_5c/Branch_1/Conv2d_0b_3x3/BatchNorm/beta"
        string_val: "InceptionV1/Mixed_5c/Branch_1/Conv2d_0b_3x3/BatchNorm/moving_mean"
        string_val: "InceptionV1/Mixed_5c/Branch_1/Conv2d_0b_3x3/BatchNorm/moving_variance"
        string_val: "InceptionV1/Mixed_5c/Branch_2/Conv2d_0a_1x1/weights"
        string_val: "InceptionV1/Mixed_5c/Branch_2/Conv2d_0a_1x1/BatchNorm/beta"
        string_val: "InceptionV1/Mixed_5c/Branch_2/Conv2d_0a_1x1/BatchNorm/moving_mean"
        string_val: "InceptionV1/Mixed_5c/Branch_2/Conv2d_0a_1x1/BatchNorm/moving_variance"
        string_val: "InceptionV1/Mixed_5c/Branch_2/Conv2d_0b_3x3/weights"
        string_val: "InceptionV1/Mixed_5c/Branch_2/Conv2d_0b_3x3/BatchNorm/beta"
        string_val: "InceptionV1/Mixed_5c/Branch_2/Conv2d_0b_3x3/BatchNorm/moving_mean"
        string_val: "InceptionV1/Mixed_5c/Branch_2/Conv2d_0b_3x3/BatchNorm/moving_variance"
        string_val: "InceptionV1/Mixed_5c/Branch_3/Conv2d_0b_1x1/weights"
        string_val: "InceptionV1/Mixed_5c/Branch_3/Conv2d_0b_1x1/BatchNorm/beta"
        string_val: "InceptionV1/Mixed_5c/Branch_3/Conv2d_0b_1x1/BatchNorm/moving_mean"
        string_val: "InceptionV1/Mixed_5c/Branch_3/Conv2d_0b_1x1/BatchNorm/moving_variance"
        string_val: "InceptionV1/Logits/Conv2d_0c_1x1/weights"
        string_val: "InceptionV1/Logits/Conv2d_0c_1x1/biases"
        string_val: "InceptionV1/Logits/Conv2d_0c_1x1/weights/RMSProp"
        string_val: "InceptionV1/Logits/Conv2d_0c_1x1/weights/RMSProp_1"
        string_val: "InceptionV1/Logits/Conv2d_0c_1x1/biases/RMSProp"
        string_val: "InceptionV1/Logits/Conv2d_0c_1x1/biases/RMSProp_1"
      }
    }
  }
}
node {
  name: "init_ops/report_uninitialized_variables/boolean_mask/Shape"
  op: "Const"
  attr {
    key: "_output_shapes"
    value {
      list {
        shape {
          dim {
            size: 1
          }
        }
      }
    }
  }
  attr {
    key: "dtype"
    value {
      type: DT_INT32
    }
  }
  attr {
    key: "value"
    value {
      tensor {
        dtype: DT_INT32
        tensor_shape {
          dim {
            size: 1
          }
        }
        int_val: 235
      }
    }
  }
}
node {
  name: "init_ops/report_uninitialized_variables/boolean_mask/strided_slice/pack"
  op: "Const"
  attr {
    key: "_output_shapes"
    value {
      list {
        shape {
          dim {
            size: 1
          }
        }
      }
    }
  }
  attr {
    key: "dtype"
    value {
      type: DT_INT32
    }
  }
  attr {
    key: "value"
    value {
      tensor {
        dtype: DT_INT32
        tensor_shape {
          dim {
            size: 1
          }
        }
        int_val: 1
      }
    }
  }
}
node {
  name: "init_ops/report_uninitialized_variables/boolean_mask/strided_slice/pack_1"
  op: "Const"
  attr {
    key: "_output_shapes"
    value {
      list {
        shape {
          dim {
            size: 1
          }
        }
      }
    }
  }
  attr {
    key: "dtype"
    value {
      type: DT_INT32
    }
  }
  attr {
    key: "value"
    value {
      tensor {
        dtype: DT_INT32
        tensor_shape {
          dim {
            size: 1
          }
        }
        int_val: 0
      }
    }
  }
}
node {
  name: "init_ops/report_uninitialized_variables/boolean_mask/strided_slice/pack_2"
  op: "Const"
  attr {
    key: "_output_shapes"
    value {
      list {
        shape {
          dim {
            size: 1
          }
        }
      }
    }
  }
  attr {
    key: "dtype"
    value {
      type: DT_INT32
    }
  }
  attr {
    key: "value"
    value {
      tensor {
        dtype: DT_INT32
        tensor_shape {
          dim {
            size: 1
          }
        }
        int_val: 1
      }
    }
  }
}
node {
  name: "init_ops/report_uninitialized_variables/boolean_mask/strided_slice"
  op: "StridedSlice"
  input: "init_ops/report_uninitialized_variables/boolean_mask/Shape"
  input: "init_ops/report_uninitialized_variables/boolean_mask/strided_slice/pack"
  input: "init_ops/report_uninitialized_variables/boolean_mask/strided_slice/pack_1"
  input: "init_ops/report_uninitialized_variables/boolean_mask/strided_slice/pack_2"
  attr {
    key: "Index"
    value {
      type: DT_INT32
    }
  }
  attr {
    key: "T"
    value {
      type: DT_INT32
    }
  }
  attr {
    key: "_output_shapes"
    value {
      list {
        shape {
          dim {
          }
        }
      }
    }
  }
  attr {
    key: "begin_mask"
    value {
      i: 0
    }
  }
  attr {
    key: "ellipsis_mask"
    value {
      i: 0
    }
  }
  attr {
    key: "end_mask"
    value {
      i: 1
    }
  }
  attr {
    key: "new_axis_mask"
    value {
      i: 0
    }
  }
  attr {
    key: "shrink_axis_mask"
    value {
      i: 0
    }
  }
}
node {
  name: "init_ops/report_uninitialized_variables/boolean_mask/concat/concat_dim"
  op: "Const"
  attr {
    key: "_output_shapes"
    value {
      list {
        shape {
        }
      }
    }
  }
  attr {
    key: "dtype"
    value {
      type: DT_INT32
    }
  }
  attr {
    key: "value"
    value {
      tensor {
        dtype: DT_INT32
        tensor_shape {
        }
        int_val: 0
      }
    }
  }
}
node {
  name: "init_ops/report_uninitialized_variables/boolean_mask/concat/values_0"
  op: "Const"
  attr {
    key: "_output_shapes"
    value {
      list {
        shape {
          dim {
            size: 1
          }
        }
      }
    }
  }
  attr {
    key: "dtype"
    value {
      type: DT_INT32
    }
  }
  attr {
    key: "value"
    value {
      tensor {
        dtype: DT_INT32
        tensor_shape {
          dim {
            size: 1
          }
        }
        int_val: -1
      }
    }
  }
}
node {
  name: "init_ops/report_uninitialized_variables/boolean_mask/concat"
  op: "Concat"
  input: "init_ops/report_uninitialized_variables/boolean_mask/concat/concat_dim"
  input: "init_ops/report_uninitialized_variables/boolean_mask/concat/values_0"
  input: "init_ops/report_uninitialized_variables/boolean_mask/strided_slice"
  attr {
    key: "N"
    value {
      i: 2
    }
  }
  attr {
    key: "T"
    value {
      type: DT_INT32
    }
  }
  attr {
    key: "_output_shapes"
    value {
      list {
        shape {
          dim {
            size: 1
          }
        }
      }
    }
  }
}
node {
  name: "init_ops/report_uninitialized_variables/boolean_mask/Reshape"
  op: "Reshape"
  input: "init_ops/report_uninitialized_variables/Const"
  input: "init_ops/report_uninitialized_variables/boolean_mask/concat"
  attr {
    key: "T"
    value {
      type: DT_STRING
    }
  }
  attr {
    key: "Tshape"
    value {
      type: DT_INT32
    }
  }
  attr {
    key: "_output_shapes"
    value {
      list {
        shape {
          dim {
            size: 235
          }
        }
      }
    }
  }
}
node {
  name: "init_ops/report_uninitialized_variables/boolean_mask/Reshape_1/shape"
  op: "Const"
  attr {
    key: "_output_shapes"
    value {
      list {
        shape {
          dim {
            size: 1
          }
        }
      }
    }
  }
  attr {
    key: "dtype"
    value {
      type: DT_INT32
    }
  }
  attr {
    key: "value"
    value {
      tensor {
        dtype: DT_INT32
        tensor_shape {
          dim {
            size: 1
          }
        }
        int_val: -1
      }
    }
  }
}
node {
  name: "init_ops/report_uninitialized_variables/boolean_mask/Reshape_1"
  op: "Reshape"
  input: "init_ops/report_uninitialized_variables/LogicalNot"
  input: "init_ops/report_uninitialized_variables/boolean_mask/Reshape_1/shape"
  attr {
    key: "T"
    value {
      type: DT_BOOL
    }
  }
  attr {
    key: "Tshape"
    value {
      type: DT_INT32
    }
  }
  attr {
    key: "_output_shapes"
    value {
      list {
        shape {
          dim {
            size: 235
          }
        }
      }
    }
  }
}
node {
  name: "init_ops/report_uninitialized_variables/boolean_mask/Where"
  op: "Where"
  input: "init_ops/report_uninitialized_variables/boolean_mask/Reshape_1"
  attr {
    key: "_output_shapes"
    value {
      list {
        shape {
          dim {
            size: -1
          }
          dim {
            size: 1
          }
        }
      }
    }
  }
}
node {
  name: "init_ops/report_uninitialized_variables/boolean_mask/Squeeze"
  op: "Squeeze"
  input: "init_ops/report_uninitialized_variables/boolean_mask/Where"
  attr {
    key: "T"
    value {
      type: DT_INT64
    }
  }
  attr {
    key: "_output_shapes"
    value {
      list {
        shape {
          dim {
            size: -1
          }
        }
      }
    }
  }
  attr {
    key: "squeeze_dims"
    value {
      list {
        i: 1
      }
    }
  }
}
node {
  name: "init_ops/report_uninitialized_variables/boolean_mask/Gather"
  op: "Gather"
  input: "init_ops/report_uninitialized_variables/boolean_mask/Reshape"
  input: "init_ops/report_uninitialized_variables/boolean_mask/Squeeze"
  attr {
    key: "Tindices"
    value {
      type: DT_INT64
    }
  }
  attr {
    key: "Tparams"
    value {
      type: DT_STRING
    }
  }
  attr {
    key: "_output_shapes"
    value {
      list {
        shape {
          dim {
            size: -1
          }
        }
      }
    }
  }
  attr {
    key: "validate_indices"
    value {
      b: true
    }
  }
}
node {
  name: "init_ops/init_1"
  op: "NoOp"
}
node {
  name: "init_ops/init_all_tables"
  op: "NoOp"
}
node {
  name: "init_ops/group_deps"
  op: "NoOp"
  input: "^init_ops/init_1"
  input: "^init_ops/init_all_tables"
}
node {
  name: "train_step/GreaterEqual/y"
  op: "Const"
  attr {
    key: "_output_shapes"
    value {
      list {
        shape {
        }
      }
    }
  }
  attr {
    key: "dtype"
    value {
      type: DT_INT64
    }
  }
  attr {
    key: "value"
    value {
      tensor {
        dtype: DT_INT64
        tensor_shape {
        }
        int64_val: 4000
      }
    }
  }
}
node {
  name: "train_step/GreaterEqual"
  op: "GreaterEqual"
  input: "global_step/read"
  input: "train_step/GreaterEqual/y"
  attr {
    key: "T"
    value {
      type: DT_INT64
    }
  }
  attr {
    key: "_output_shapes"
    value {
      list {
        shape {
        }
      }
    }
  }
}
node {
  name: "train_step/Mod/y"
  op: "Const"
  attr {
    key: "_output_shapes"
    value {
      list {
        shape {
        }
      }
    }
  }
  attr {
    key: "dtype"
    value {
      type: DT_INT64
    }
  }
  attr {
    key: "value"
    value {
      tensor {
        dtype: DT_INT64
        tensor_shape {
        }
        int64_val: 10
      }
    }
  }
}
node {
  name: "train_step/Mod"
  op: "Mod"
  input: "global_step/read"
  input: "train_step/Mod/y"
  attr {
    key: "T"
    value {
      type: DT_INT64
    }
  }
  attr {
    key: "_output_shapes"
    value {
      list {
        shape {
        }
      }
    }
  }
}
node {
  name: "train_step/Equal/y"
  op: "Const"
  attr {
    key: "_output_shapes"
    value {
      list {
        shape {
        }
      }
    }
  }
  attr {
    key: "dtype"
    value {
      type: DT_INT64
    }
  }
  attr {
    key: "value"
    value {
      tensor {
        dtype: DT_INT64
        tensor_shape {
        }
        int64_val: 0
      }
    }
  }
}
node {
  name: "train_step/Equal"
  op: "Equal"
  input: "train_step/Mod"
  input: "train_step/Equal/y"
  attr {
    key: "T"
    value {
      type: DT_INT64
    }
  }
  attr {
    key: "_output_shapes"
    value {
      list {
        shape {
        }
      }
    }
  }
}
versions {
  producer: 15
}
